<?xml version="1.0" ?>
<net name="torch-jit-export" version="11">
	<layers>
		<layer id="0" name="imgs" type="Parameter" version="opset1">
			<data shape="1,3,160,1400" element_type="f32"/>
			<rt_info>
				<attribute name="fused_names" version="0" value="imgs"/>
			</rt_info>
			<output>
				<port id="0" precision="FP32" names="imgs">
					<dim>1</dim>
					<dim>3</dim>
					<dim>160</dim>
					<dim>1400</dim>
					<rt_info>
						<attribute name="layout" version="0" layout="[N,C,H,W]"/>
					</rt_info>
				</port>
			</output>
		</layer>
		<layer id="1" name="Multiply_12223" type="Const" version="opset1">
			<data element_type="f32" shape="64, 3, 7, 7" offset="0" size="37632"/>
			<output>
				<port id="0" precision="FP32">
					<dim>64</dim>
					<dim>3</dim>
					<dim>7</dim>
					<dim>7</dim>
				</port>
			</output>
		</layer>
		<layer id="2" name="Multiply_12042" type="Convolution" version="opset1">
			<data strides="2, 2" dilations="1, 1" pads_begin="3, 3" pads_end="3, 3" auto_pad="explicit"/>
			<rt_info>
				<attribute name="fused_names" version="0" value="169, 170, Constant_2104, Divide_2105, model.cnn_encoder.bn1.bias, model.cnn_encoder.bn1.running_mean, model.cnn_encoder.bn1.running_var, model.cnn_encoder.bn1.weight, model.cnn_encoder.conv1.weight"/>
				<attribute name="preprocessing" version="0"/>
			</rt_info>
			<input>
				<port id="0" precision="FP32">
					<dim>1</dim>
					<dim>3</dim>
					<dim>160</dim>
					<dim>1400</dim>
				</port>
				<port id="1" precision="FP32">
					<dim>64</dim>
					<dim>3</dim>
					<dim>7</dim>
					<dim>7</dim>
				</port>
			</input>
			<output>
				<port id="2" precision="FP32">
					<dim>1</dim>
					<dim>64</dim>
					<dim>80</dim>
					<dim>700</dim>
				</port>
			</output>
		</layer>
		<layer id="3" name="Constant_12047" type="Const" version="opset1">
			<data element_type="f32" shape="1, 64, 1, 1" offset="37632" size="256"/>
			<output>
				<port id="0" precision="FP32">
					<dim>1</dim>
					<dim>64</dim>
					<dim>1</dim>
					<dim>1</dim>
				</port>
			</output>
		</layer>
		<layer id="4" name="170" type="Add" version="opset1">
			<data auto_broadcast="numpy"/>
			<rt_info>
				<attribute name="fused_names" version="0" value="170, model.cnn_encoder.bn1.bias, model.cnn_encoder.bn1.running_mean, model.cnn_encoder.bn1.running_var, model.cnn_encoder.bn1.weight"/>
			</rt_info>
			<input>
				<port id="0" precision="FP32">
					<dim>1</dim>
					<dim>64</dim>
					<dim>80</dim>
					<dim>700</dim>
				</port>
				<port id="1" precision="FP32">
					<dim>1</dim>
					<dim>64</dim>
					<dim>1</dim>
					<dim>1</dim>
				</port>
			</input>
			<output>
				<port id="2" precision="FP32" names="170">
					<dim>1</dim>
					<dim>64</dim>
					<dim>80</dim>
					<dim>700</dim>
				</port>
			</output>
		</layer>
		<layer id="5" name="171" type="ReLU" version="opset1">
			<rt_info>
				<attribute name="fused_names" version="0" value="171"/>
			</rt_info>
			<input>
				<port id="0" precision="FP32">
					<dim>1</dim>
					<dim>64</dim>
					<dim>80</dim>
					<dim>700</dim>
				</port>
			</input>
			<output>
				<port id="1" precision="FP32" names="171">
					<dim>1</dim>
					<dim>64</dim>
					<dim>80</dim>
					<dim>700</dim>
				</port>
			</output>
		</layer>
		<layer id="6" name="172" type="MaxPool" version="opset8">
			<data strides="2, 2" dilations="1, 1" pads_begin="1, 1" pads_end="1, 1" kernel="3, 3" rounding_type="floor" auto_pad="explicit" index_element_type="i64" axis="0"/>
			<rt_info>
				<attribute name="fused_names" version="0" value="172"/>
			</rt_info>
			<input>
				<port id="0" precision="FP32">
					<dim>1</dim>
					<dim>64</dim>
					<dim>80</dim>
					<dim>700</dim>
				</port>
			</input>
			<output>
				<port id="1" precision="FP32" names="172">
					<dim>1</dim>
					<dim>64</dim>
					<dim>40</dim>
					<dim>350</dim>
				</port>
				<port id="2" precision="I64">
					<dim>1</dim>
					<dim>64</dim>
					<dim>40</dim>
					<dim>350</dim>
				</port>
			</output>
		</layer>
		<layer id="7" name="Multiply_12232" type="Const" version="opset1">
			<data element_type="f32" shape="128, 64, 1, 1" offset="37888" size="32768"/>
			<output>
				<port id="0" precision="FP32">
					<dim>128</dim>
					<dim>64</dim>
					<dim>1</dim>
					<dim>1</dim>
				</port>
			</output>
		</layer>
		<layer id="8" name="Multiply_12049" type="Convolution" version="opset1">
			<data strides="1, 1" dilations="1, 1" pads_begin="0, 0" pads_end="0, 0" auto_pad="explicit"/>
			<rt_info>
				<attribute name="fused_names" version="0" value="173, 174, model.cnn_encoder.layer1.0.bn1.bias, model.cnn_encoder.layer1.0.bn1.running_mean, model.cnn_encoder.layer1.0.bn1.running_var, model.cnn_encoder.layer1.0.bn1.weight"/>
			</rt_info>
			<input>
				<port id="0" precision="FP32">
					<dim>1</dim>
					<dim>64</dim>
					<dim>40</dim>
					<dim>350</dim>
				</port>
				<port id="1" precision="FP32">
					<dim>128</dim>
					<dim>64</dim>
					<dim>1</dim>
					<dim>1</dim>
				</port>
			</input>
			<output>
				<port id="2" precision="FP32">
					<dim>1</dim>
					<dim>128</dim>
					<dim>40</dim>
					<dim>350</dim>
				</port>
			</output>
		</layer>
		<layer id="9" name="Constant_12054" type="Const" version="opset1">
			<data element_type="f32" shape="1, 128, 1, 1" offset="70656" size="512"/>
			<output>
				<port id="0" precision="FP32">
					<dim>1</dim>
					<dim>128</dim>
					<dim>1</dim>
					<dim>1</dim>
				</port>
			</output>
		</layer>
		<layer id="10" name="174" type="Add" version="opset1">
			<data auto_broadcast="numpy"/>
			<rt_info>
				<attribute name="fused_names" version="0" value="174, model.cnn_encoder.layer1.0.bn1.bias, model.cnn_encoder.layer1.0.bn1.running_mean, model.cnn_encoder.layer1.0.bn1.running_var, model.cnn_encoder.layer1.0.bn1.weight"/>
			</rt_info>
			<input>
				<port id="0" precision="FP32">
					<dim>1</dim>
					<dim>128</dim>
					<dim>40</dim>
					<dim>350</dim>
				</port>
				<port id="1" precision="FP32">
					<dim>1</dim>
					<dim>128</dim>
					<dim>1</dim>
					<dim>1</dim>
				</port>
			</input>
			<output>
				<port id="2" precision="FP32" names="174">
					<dim>1</dim>
					<dim>128</dim>
					<dim>40</dim>
					<dim>350</dim>
				</port>
			</output>
		</layer>
		<layer id="11" name="175" type="ReLU" version="opset1">
			<rt_info>
				<attribute name="fused_names" version="0" value="175"/>
			</rt_info>
			<input>
				<port id="0" precision="FP32">
					<dim>1</dim>
					<dim>128</dim>
					<dim>40</dim>
					<dim>350</dim>
				</port>
			</input>
			<output>
				<port id="1" precision="FP32" names="175">
					<dim>1</dim>
					<dim>128</dim>
					<dim>40</dim>
					<dim>350</dim>
				</port>
			</output>
		</layer>
		<layer id="12" name="Multiply_12241" type="Const" version="opset1">
			<data element_type="f32" shape="32, 4, 4, 3, 3" offset="71168" size="18432"/>
			<output>
				<port id="0" precision="FP32">
					<dim>32</dim>
					<dim>4</dim>
					<dim>4</dim>
					<dim>3</dim>
					<dim>3</dim>
				</port>
			</output>
		</layer>
		<layer id="13" name="Multiply_12056" type="GroupConvolution" version="opset1">
			<data strides="1, 1" pads_begin="1, 1" pads_end="1, 1" dilations="1, 1" auto_pad="explicit"/>
			<rt_info>
				<attribute name="fused_names" version="0" value="177, model.cnn_encoder.layer1.0.bn2.bias, model.cnn_encoder.layer1.0.bn2.running_mean, model.cnn_encoder.layer1.0.bn2.running_var, model.cnn_encoder.layer1.0.bn2.weight"/>
			</rt_info>
			<input>
				<port id="0" precision="FP32">
					<dim>1</dim>
					<dim>128</dim>
					<dim>40</dim>
					<dim>350</dim>
				</port>
				<port id="1" precision="FP32">
					<dim>32</dim>
					<dim>4</dim>
					<dim>4</dim>
					<dim>3</dim>
					<dim>3</dim>
				</port>
			</input>
			<output>
				<port id="2" precision="FP32" names="176">
					<dim>1</dim>
					<dim>128</dim>
					<dim>40</dim>
					<dim>350</dim>
				</port>
			</output>
		</layer>
		<layer id="14" name="Constant_12061" type="Const" version="opset1">
			<data element_type="f32" shape="1, 128, 1, 1" offset="89600" size="512"/>
			<output>
				<port id="0" precision="FP32">
					<dim>1</dim>
					<dim>128</dim>
					<dim>1</dim>
					<dim>1</dim>
				</port>
			</output>
		</layer>
		<layer id="15" name="177" type="Add" version="opset1">
			<data auto_broadcast="numpy"/>
			<rt_info>
				<attribute name="fused_names" version="0" value="177, model.cnn_encoder.layer1.0.bn2.bias, model.cnn_encoder.layer1.0.bn2.running_mean, model.cnn_encoder.layer1.0.bn2.running_var, model.cnn_encoder.layer1.0.bn2.weight"/>
			</rt_info>
			<input>
				<port id="0" precision="FP32">
					<dim>1</dim>
					<dim>128</dim>
					<dim>40</dim>
					<dim>350</dim>
				</port>
				<port id="1" precision="FP32">
					<dim>1</dim>
					<dim>128</dim>
					<dim>1</dim>
					<dim>1</dim>
				</port>
			</input>
			<output>
				<port id="2" precision="FP32" names="177">
					<dim>1</dim>
					<dim>128</dim>
					<dim>40</dim>
					<dim>350</dim>
				</port>
			</output>
		</layer>
		<layer id="16" name="178" type="ReLU" version="opset1">
			<rt_info>
				<attribute name="fused_names" version="0" value="178"/>
			</rt_info>
			<input>
				<port id="0" precision="FP32">
					<dim>1</dim>
					<dim>128</dim>
					<dim>40</dim>
					<dim>350</dim>
				</port>
			</input>
			<output>
				<port id="1" precision="FP32" names="178">
					<dim>1</dim>
					<dim>128</dim>
					<dim>40</dim>
					<dim>350</dim>
				</port>
			</output>
		</layer>
		<layer id="17" name="Multiply_12249" type="Const" version="opset1">
			<data element_type="f32" shape="256, 128, 1, 1" offset="90112" size="131072"/>
			<output>
				<port id="0" precision="FP32">
					<dim>256</dim>
					<dim>128</dim>
					<dim>1</dim>
					<dim>1</dim>
				</port>
			</output>
		</layer>
		<layer id="18" name="Multiply_12063" type="Convolution" version="opset1">
			<data strides="1, 1" dilations="1, 1" pads_begin="0, 0" pads_end="0, 0" auto_pad="explicit"/>
			<rt_info>
				<attribute name="fused_names" version="0" value="179, 180, model.cnn_encoder.layer1.0.bn3.bias, model.cnn_encoder.layer1.0.bn3.running_mean, model.cnn_encoder.layer1.0.bn3.running_var, model.cnn_encoder.layer1.0.bn3.weight"/>
			</rt_info>
			<input>
				<port id="0" precision="FP32">
					<dim>1</dim>
					<dim>128</dim>
					<dim>40</dim>
					<dim>350</dim>
				</port>
				<port id="1" precision="FP32">
					<dim>256</dim>
					<dim>128</dim>
					<dim>1</dim>
					<dim>1</dim>
				</port>
			</input>
			<output>
				<port id="2" precision="FP32">
					<dim>1</dim>
					<dim>256</dim>
					<dim>40</dim>
					<dim>350</dim>
				</port>
			</output>
		</layer>
		<layer id="19" name="Constant_12068" type="Const" version="opset1">
			<data element_type="f32" shape="1, 256, 1, 1" offset="221184" size="1024"/>
			<output>
				<port id="0" precision="FP32">
					<dim>1</dim>
					<dim>256</dim>
					<dim>1</dim>
					<dim>1</dim>
				</port>
			</output>
		</layer>
		<layer id="20" name="180" type="Add" version="opset1">
			<data auto_broadcast="numpy"/>
			<rt_info>
				<attribute name="fused_names" version="0" value="180, model.cnn_encoder.layer1.0.bn3.bias, model.cnn_encoder.layer1.0.bn3.running_mean, model.cnn_encoder.layer1.0.bn3.running_var, model.cnn_encoder.layer1.0.bn3.weight"/>
			</rt_info>
			<input>
				<port id="0" precision="FP32">
					<dim>1</dim>
					<dim>256</dim>
					<dim>40</dim>
					<dim>350</dim>
				</port>
				<port id="1" precision="FP32">
					<dim>1</dim>
					<dim>256</dim>
					<dim>1</dim>
					<dim>1</dim>
				</port>
			</input>
			<output>
				<port id="2" precision="FP32" names="180">
					<dim>1</dim>
					<dim>256</dim>
					<dim>40</dim>
					<dim>350</dim>
				</port>
			</output>
		</layer>
		<layer id="21" name="Multiply_12258" type="Const" version="opset1">
			<data element_type="f32" shape="256, 64, 1, 1" offset="222208" size="65536"/>
			<output>
				<port id="0" precision="FP32">
					<dim>256</dim>
					<dim>64</dim>
					<dim>1</dim>
					<dim>1</dim>
				</port>
			</output>
		</layer>
		<layer id="22" name="Multiply_12070" type="Convolution" version="opset1">
			<data strides="1, 1" dilations="1, 1" pads_begin="0, 0" pads_end="0, 0" auto_pad="explicit"/>
			<rt_info>
				<attribute name="fused_names" version="0" value="181, 182, model.cnn_encoder.layer1.0.downsample.1.bias, model.cnn_encoder.layer1.0.downsample.1.running_mean, model.cnn_encoder.layer1.0.downsample.1.running_var, model.cnn_encoder.layer1.0.downsample.1.weight"/>
			</rt_info>
			<input>
				<port id="0" precision="FP32">
					<dim>1</dim>
					<dim>64</dim>
					<dim>40</dim>
					<dim>350</dim>
				</port>
				<port id="1" precision="FP32">
					<dim>256</dim>
					<dim>64</dim>
					<dim>1</dim>
					<dim>1</dim>
				</port>
			</input>
			<output>
				<port id="2" precision="FP32">
					<dim>1</dim>
					<dim>256</dim>
					<dim>40</dim>
					<dim>350</dim>
				</port>
			</output>
		</layer>
		<layer id="23" name="Constant_12075" type="Const" version="opset1">
			<data element_type="f32" shape="1, 256, 1, 1" offset="287744" size="1024"/>
			<output>
				<port id="0" precision="FP32">
					<dim>1</dim>
					<dim>256</dim>
					<dim>1</dim>
					<dim>1</dim>
				</port>
			</output>
		</layer>
		<layer id="24" name="182" type="Add" version="opset1">
			<data auto_broadcast="numpy"/>
			<rt_info>
				<attribute name="fused_names" version="0" value="182, model.cnn_encoder.layer1.0.downsample.1.bias, model.cnn_encoder.layer1.0.downsample.1.running_mean, model.cnn_encoder.layer1.0.downsample.1.running_var, model.cnn_encoder.layer1.0.downsample.1.weight"/>
			</rt_info>
			<input>
				<port id="0" precision="FP32">
					<dim>1</dim>
					<dim>256</dim>
					<dim>40</dim>
					<dim>350</dim>
				</port>
				<port id="1" precision="FP32">
					<dim>1</dim>
					<dim>256</dim>
					<dim>1</dim>
					<dim>1</dim>
				</port>
			</input>
			<output>
				<port id="2" precision="FP32" names="182">
					<dim>1</dim>
					<dim>256</dim>
					<dim>40</dim>
					<dim>350</dim>
				</port>
			</output>
		</layer>
		<layer id="25" name="183" type="Add" version="opset1">
			<data auto_broadcast="numpy"/>
			<rt_info>
				<attribute name="fused_names" version="0" value="183"/>
			</rt_info>
			<input>
				<port id="0" precision="FP32">
					<dim>1</dim>
					<dim>256</dim>
					<dim>40</dim>
					<dim>350</dim>
				</port>
				<port id="1" precision="FP32">
					<dim>1</dim>
					<dim>256</dim>
					<dim>40</dim>
					<dim>350</dim>
				</port>
			</input>
			<output>
				<port id="2" precision="FP32" names="183">
					<dim>1</dim>
					<dim>256</dim>
					<dim>40</dim>
					<dim>350</dim>
				</port>
			</output>
		</layer>
		<layer id="26" name="184" type="ReLU" version="opset1">
			<rt_info>
				<attribute name="fused_names" version="0" value="184"/>
			</rt_info>
			<input>
				<port id="0" precision="FP32">
					<dim>1</dim>
					<dim>256</dim>
					<dim>40</dim>
					<dim>350</dim>
				</port>
			</input>
			<output>
				<port id="1" precision="FP32" names="184">
					<dim>1</dim>
					<dim>256</dim>
					<dim>40</dim>
					<dim>350</dim>
				</port>
			</output>
		</layer>
		<layer id="27" name="Multiply_12267" type="Const" version="opset1">
			<data element_type="f32" shape="128, 256, 1, 1" offset="288768" size="131072"/>
			<output>
				<port id="0" precision="FP32">
					<dim>128</dim>
					<dim>256</dim>
					<dim>1</dim>
					<dim>1</dim>
				</port>
			</output>
		</layer>
		<layer id="28" name="Multiply_12077" type="Convolution" version="opset1">
			<data strides="1, 1" dilations="1, 1" pads_begin="0, 0" pads_end="0, 0" auto_pad="explicit"/>
			<rt_info>
				<attribute name="fused_names" version="0" value="185, 186, model.cnn_encoder.layer1.1.bn1.bias, model.cnn_encoder.layer1.1.bn1.running_mean, model.cnn_encoder.layer1.1.bn1.running_var, model.cnn_encoder.layer1.1.bn1.weight"/>
			</rt_info>
			<input>
				<port id="0" precision="FP32">
					<dim>1</dim>
					<dim>256</dim>
					<dim>40</dim>
					<dim>350</dim>
				</port>
				<port id="1" precision="FP32">
					<dim>128</dim>
					<dim>256</dim>
					<dim>1</dim>
					<dim>1</dim>
				</port>
			</input>
			<output>
				<port id="2" precision="FP32">
					<dim>1</dim>
					<dim>128</dim>
					<dim>40</dim>
					<dim>350</dim>
				</port>
			</output>
		</layer>
		<layer id="29" name="Constant_12082" type="Const" version="opset1">
			<data element_type="f32" shape="1, 128, 1, 1" offset="419840" size="512"/>
			<output>
				<port id="0" precision="FP32">
					<dim>1</dim>
					<dim>128</dim>
					<dim>1</dim>
					<dim>1</dim>
				</port>
			</output>
		</layer>
		<layer id="30" name="186" type="Add" version="opset1">
			<data auto_broadcast="numpy"/>
			<rt_info>
				<attribute name="fused_names" version="0" value="186, model.cnn_encoder.layer1.1.bn1.bias, model.cnn_encoder.layer1.1.bn1.running_mean, model.cnn_encoder.layer1.1.bn1.running_var, model.cnn_encoder.layer1.1.bn1.weight"/>
			</rt_info>
			<input>
				<port id="0" precision="FP32">
					<dim>1</dim>
					<dim>128</dim>
					<dim>40</dim>
					<dim>350</dim>
				</port>
				<port id="1" precision="FP32">
					<dim>1</dim>
					<dim>128</dim>
					<dim>1</dim>
					<dim>1</dim>
				</port>
			</input>
			<output>
				<port id="2" precision="FP32" names="186">
					<dim>1</dim>
					<dim>128</dim>
					<dim>40</dim>
					<dim>350</dim>
				</port>
			</output>
		</layer>
		<layer id="31" name="187" type="ReLU" version="opset1">
			<rt_info>
				<attribute name="fused_names" version="0" value="187"/>
			</rt_info>
			<input>
				<port id="0" precision="FP32">
					<dim>1</dim>
					<dim>128</dim>
					<dim>40</dim>
					<dim>350</dim>
				</port>
			</input>
			<output>
				<port id="1" precision="FP32" names="187">
					<dim>1</dim>
					<dim>128</dim>
					<dim>40</dim>
					<dim>350</dim>
				</port>
			</output>
		</layer>
		<layer id="32" name="Multiply_12276" type="Const" version="opset1">
			<data element_type="f32" shape="32, 4, 4, 3, 3" offset="420352" size="18432"/>
			<output>
				<port id="0" precision="FP32">
					<dim>32</dim>
					<dim>4</dim>
					<dim>4</dim>
					<dim>3</dim>
					<dim>3</dim>
				</port>
			</output>
		</layer>
		<layer id="33" name="Multiply_12084" type="GroupConvolution" version="opset1">
			<data strides="1, 1" pads_begin="1, 1" pads_end="1, 1" dilations="1, 1" auto_pad="explicit"/>
			<rt_info>
				<attribute name="fused_names" version="0" value="189, model.cnn_encoder.layer1.1.bn2.bias, model.cnn_encoder.layer1.1.bn2.running_mean, model.cnn_encoder.layer1.1.bn2.running_var, model.cnn_encoder.layer1.1.bn2.weight"/>
			</rt_info>
			<input>
				<port id="0" precision="FP32">
					<dim>1</dim>
					<dim>128</dim>
					<dim>40</dim>
					<dim>350</dim>
				</port>
				<port id="1" precision="FP32">
					<dim>32</dim>
					<dim>4</dim>
					<dim>4</dim>
					<dim>3</dim>
					<dim>3</dim>
				</port>
			</input>
			<output>
				<port id="2" precision="FP32" names="188">
					<dim>1</dim>
					<dim>128</dim>
					<dim>40</dim>
					<dim>350</dim>
				</port>
			</output>
		</layer>
		<layer id="34" name="Constant_12089" type="Const" version="opset1">
			<data element_type="f32" shape="1, 128, 1, 1" offset="438784" size="512"/>
			<output>
				<port id="0" precision="FP32">
					<dim>1</dim>
					<dim>128</dim>
					<dim>1</dim>
					<dim>1</dim>
				</port>
			</output>
		</layer>
		<layer id="35" name="189" type="Add" version="opset1">
			<data auto_broadcast="numpy"/>
			<rt_info>
				<attribute name="fused_names" version="0" value="189, model.cnn_encoder.layer1.1.bn2.bias, model.cnn_encoder.layer1.1.bn2.running_mean, model.cnn_encoder.layer1.1.bn2.running_var, model.cnn_encoder.layer1.1.bn2.weight"/>
			</rt_info>
			<input>
				<port id="0" precision="FP32">
					<dim>1</dim>
					<dim>128</dim>
					<dim>40</dim>
					<dim>350</dim>
				</port>
				<port id="1" precision="FP32">
					<dim>1</dim>
					<dim>128</dim>
					<dim>1</dim>
					<dim>1</dim>
				</port>
			</input>
			<output>
				<port id="2" precision="FP32" names="189">
					<dim>1</dim>
					<dim>128</dim>
					<dim>40</dim>
					<dim>350</dim>
				</port>
			</output>
		</layer>
		<layer id="36" name="190" type="ReLU" version="opset1">
			<rt_info>
				<attribute name="fused_names" version="0" value="190"/>
			</rt_info>
			<input>
				<port id="0" precision="FP32">
					<dim>1</dim>
					<dim>128</dim>
					<dim>40</dim>
					<dim>350</dim>
				</port>
			</input>
			<output>
				<port id="1" precision="FP32" names="190">
					<dim>1</dim>
					<dim>128</dim>
					<dim>40</dim>
					<dim>350</dim>
				</port>
			</output>
		</layer>
		<layer id="37" name="Multiply_12284" type="Const" version="opset1">
			<data element_type="f32" shape="256, 128, 1, 1" offset="439296" size="131072"/>
			<output>
				<port id="0" precision="FP32">
					<dim>256</dim>
					<dim>128</dim>
					<dim>1</dim>
					<dim>1</dim>
				</port>
			</output>
		</layer>
		<layer id="38" name="Multiply_12091" type="Convolution" version="opset1">
			<data strides="1, 1" dilations="1, 1" pads_begin="0, 0" pads_end="0, 0" auto_pad="explicit"/>
			<rt_info>
				<attribute name="fused_names" version="0" value="191, 192, model.cnn_encoder.layer1.1.bn3.bias, model.cnn_encoder.layer1.1.bn3.running_mean, model.cnn_encoder.layer1.1.bn3.running_var, model.cnn_encoder.layer1.1.bn3.weight"/>
			</rt_info>
			<input>
				<port id="0" precision="FP32">
					<dim>1</dim>
					<dim>128</dim>
					<dim>40</dim>
					<dim>350</dim>
				</port>
				<port id="1" precision="FP32">
					<dim>256</dim>
					<dim>128</dim>
					<dim>1</dim>
					<dim>1</dim>
				</port>
			</input>
			<output>
				<port id="2" precision="FP32">
					<dim>1</dim>
					<dim>256</dim>
					<dim>40</dim>
					<dim>350</dim>
				</port>
			</output>
		</layer>
		<layer id="39" name="Constant_12096" type="Const" version="opset1">
			<data element_type="f32" shape="1, 256, 1, 1" offset="570368" size="1024"/>
			<output>
				<port id="0" precision="FP32">
					<dim>1</dim>
					<dim>256</dim>
					<dim>1</dim>
					<dim>1</dim>
				</port>
			</output>
		</layer>
		<layer id="40" name="192" type="Add" version="opset1">
			<data auto_broadcast="numpy"/>
			<rt_info>
				<attribute name="fused_names" version="0" value="192, model.cnn_encoder.layer1.1.bn3.bias, model.cnn_encoder.layer1.1.bn3.running_mean, model.cnn_encoder.layer1.1.bn3.running_var, model.cnn_encoder.layer1.1.bn3.weight"/>
			</rt_info>
			<input>
				<port id="0" precision="FP32">
					<dim>1</dim>
					<dim>256</dim>
					<dim>40</dim>
					<dim>350</dim>
				</port>
				<port id="1" precision="FP32">
					<dim>1</dim>
					<dim>256</dim>
					<dim>1</dim>
					<dim>1</dim>
				</port>
			</input>
			<output>
				<port id="2" precision="FP32" names="192">
					<dim>1</dim>
					<dim>256</dim>
					<dim>40</dim>
					<dim>350</dim>
				</port>
			</output>
		</layer>
		<layer id="41" name="193" type="Add" version="opset1">
			<data auto_broadcast="numpy"/>
			<rt_info>
				<attribute name="fused_names" version="0" value="193"/>
			</rt_info>
			<input>
				<port id="0" precision="FP32">
					<dim>1</dim>
					<dim>256</dim>
					<dim>40</dim>
					<dim>350</dim>
				</port>
				<port id="1" precision="FP32">
					<dim>1</dim>
					<dim>256</dim>
					<dim>40</dim>
					<dim>350</dim>
				</port>
			</input>
			<output>
				<port id="2" precision="FP32" names="193">
					<dim>1</dim>
					<dim>256</dim>
					<dim>40</dim>
					<dim>350</dim>
				</port>
			</output>
		</layer>
		<layer id="42" name="194" type="ReLU" version="opset1">
			<rt_info>
				<attribute name="fused_names" version="0" value="194"/>
			</rt_info>
			<input>
				<port id="0" precision="FP32">
					<dim>1</dim>
					<dim>256</dim>
					<dim>40</dim>
					<dim>350</dim>
				</port>
			</input>
			<output>
				<port id="1" precision="FP32" names="194">
					<dim>1</dim>
					<dim>256</dim>
					<dim>40</dim>
					<dim>350</dim>
				</port>
			</output>
		</layer>
		<layer id="43" name="Multiply_12293" type="Const" version="opset1">
			<data element_type="f32" shape="128, 256, 1, 1" offset="571392" size="131072"/>
			<output>
				<port id="0" precision="FP32">
					<dim>128</dim>
					<dim>256</dim>
					<dim>1</dim>
					<dim>1</dim>
				</port>
			</output>
		</layer>
		<layer id="44" name="Multiply_12098" type="Convolution" version="opset1">
			<data strides="1, 1" dilations="1, 1" pads_begin="0, 0" pads_end="0, 0" auto_pad="explicit"/>
			<rt_info>
				<attribute name="fused_names" version="0" value="195, 196, model.cnn_encoder.layer1.2.bn1.bias, model.cnn_encoder.layer1.2.bn1.running_mean, model.cnn_encoder.layer1.2.bn1.running_var, model.cnn_encoder.layer1.2.bn1.weight"/>
			</rt_info>
			<input>
				<port id="0" precision="FP32">
					<dim>1</dim>
					<dim>256</dim>
					<dim>40</dim>
					<dim>350</dim>
				</port>
				<port id="1" precision="FP32">
					<dim>128</dim>
					<dim>256</dim>
					<dim>1</dim>
					<dim>1</dim>
				</port>
			</input>
			<output>
				<port id="2" precision="FP32">
					<dim>1</dim>
					<dim>128</dim>
					<dim>40</dim>
					<dim>350</dim>
				</port>
			</output>
		</layer>
		<layer id="45" name="Constant_12103" type="Const" version="opset1">
			<data element_type="f32" shape="1, 128, 1, 1" offset="702464" size="512"/>
			<output>
				<port id="0" precision="FP32">
					<dim>1</dim>
					<dim>128</dim>
					<dim>1</dim>
					<dim>1</dim>
				</port>
			</output>
		</layer>
		<layer id="46" name="196" type="Add" version="opset1">
			<data auto_broadcast="numpy"/>
			<rt_info>
				<attribute name="fused_names" version="0" value="196, model.cnn_encoder.layer1.2.bn1.bias, model.cnn_encoder.layer1.2.bn1.running_mean, model.cnn_encoder.layer1.2.bn1.running_var, model.cnn_encoder.layer1.2.bn1.weight"/>
			</rt_info>
			<input>
				<port id="0" precision="FP32">
					<dim>1</dim>
					<dim>128</dim>
					<dim>40</dim>
					<dim>350</dim>
				</port>
				<port id="1" precision="FP32">
					<dim>1</dim>
					<dim>128</dim>
					<dim>1</dim>
					<dim>1</dim>
				</port>
			</input>
			<output>
				<port id="2" precision="FP32" names="196">
					<dim>1</dim>
					<dim>128</dim>
					<dim>40</dim>
					<dim>350</dim>
				</port>
			</output>
		</layer>
		<layer id="47" name="197" type="ReLU" version="opset1">
			<rt_info>
				<attribute name="fused_names" version="0" value="197"/>
			</rt_info>
			<input>
				<port id="0" precision="FP32">
					<dim>1</dim>
					<dim>128</dim>
					<dim>40</dim>
					<dim>350</dim>
				</port>
			</input>
			<output>
				<port id="1" precision="FP32" names="197">
					<dim>1</dim>
					<dim>128</dim>
					<dim>40</dim>
					<dim>350</dim>
				</port>
			</output>
		</layer>
		<layer id="48" name="Multiply_12302" type="Const" version="opset1">
			<data element_type="f32" shape="32, 4, 4, 3, 3" offset="702976" size="18432"/>
			<output>
				<port id="0" precision="FP32">
					<dim>32</dim>
					<dim>4</dim>
					<dim>4</dim>
					<dim>3</dim>
					<dim>3</dim>
				</port>
			</output>
		</layer>
		<layer id="49" name="Multiply_12105" type="GroupConvolution" version="opset1">
			<data strides="1, 1" pads_begin="1, 1" pads_end="1, 1" dilations="1, 1" auto_pad="explicit"/>
			<rt_info>
				<attribute name="fused_names" version="0" value="199, model.cnn_encoder.layer1.2.bn2.bias, model.cnn_encoder.layer1.2.bn2.running_mean, model.cnn_encoder.layer1.2.bn2.running_var, model.cnn_encoder.layer1.2.bn2.weight"/>
			</rt_info>
			<input>
				<port id="0" precision="FP32">
					<dim>1</dim>
					<dim>128</dim>
					<dim>40</dim>
					<dim>350</dim>
				</port>
				<port id="1" precision="FP32">
					<dim>32</dim>
					<dim>4</dim>
					<dim>4</dim>
					<dim>3</dim>
					<dim>3</dim>
				</port>
			</input>
			<output>
				<port id="2" precision="FP32" names="198">
					<dim>1</dim>
					<dim>128</dim>
					<dim>40</dim>
					<dim>350</dim>
				</port>
			</output>
		</layer>
		<layer id="50" name="Constant_12110" type="Const" version="opset1">
			<data element_type="f32" shape="1, 128, 1, 1" offset="721408" size="512"/>
			<output>
				<port id="0" precision="FP32">
					<dim>1</dim>
					<dim>128</dim>
					<dim>1</dim>
					<dim>1</dim>
				</port>
			</output>
		</layer>
		<layer id="51" name="199" type="Add" version="opset1">
			<data auto_broadcast="numpy"/>
			<rt_info>
				<attribute name="fused_names" version="0" value="199, model.cnn_encoder.layer1.2.bn2.bias, model.cnn_encoder.layer1.2.bn2.running_mean, model.cnn_encoder.layer1.2.bn2.running_var, model.cnn_encoder.layer1.2.bn2.weight"/>
			</rt_info>
			<input>
				<port id="0" precision="FP32">
					<dim>1</dim>
					<dim>128</dim>
					<dim>40</dim>
					<dim>350</dim>
				</port>
				<port id="1" precision="FP32">
					<dim>1</dim>
					<dim>128</dim>
					<dim>1</dim>
					<dim>1</dim>
				</port>
			</input>
			<output>
				<port id="2" precision="FP32" names="199">
					<dim>1</dim>
					<dim>128</dim>
					<dim>40</dim>
					<dim>350</dim>
				</port>
			</output>
		</layer>
		<layer id="52" name="200" type="ReLU" version="opset1">
			<rt_info>
				<attribute name="fused_names" version="0" value="200"/>
			</rt_info>
			<input>
				<port id="0" precision="FP32">
					<dim>1</dim>
					<dim>128</dim>
					<dim>40</dim>
					<dim>350</dim>
				</port>
			</input>
			<output>
				<port id="1" precision="FP32" names="200">
					<dim>1</dim>
					<dim>128</dim>
					<dim>40</dim>
					<dim>350</dim>
				</port>
			</output>
		</layer>
		<layer id="53" name="Multiply_12310" type="Const" version="opset1">
			<data element_type="f32" shape="256, 128, 1, 1" offset="721920" size="131072"/>
			<output>
				<port id="0" precision="FP32">
					<dim>256</dim>
					<dim>128</dim>
					<dim>1</dim>
					<dim>1</dim>
				</port>
			</output>
		</layer>
		<layer id="54" name="Multiply_12112" type="Convolution" version="opset1">
			<data strides="1, 1" dilations="1, 1" pads_begin="0, 0" pads_end="0, 0" auto_pad="explicit"/>
			<rt_info>
				<attribute name="fused_names" version="0" value="201, 202, model.cnn_encoder.layer1.2.bn3.bias, model.cnn_encoder.layer1.2.bn3.running_mean, model.cnn_encoder.layer1.2.bn3.running_var, model.cnn_encoder.layer1.2.bn3.weight"/>
			</rt_info>
			<input>
				<port id="0" precision="FP32">
					<dim>1</dim>
					<dim>128</dim>
					<dim>40</dim>
					<dim>350</dim>
				</port>
				<port id="1" precision="FP32">
					<dim>256</dim>
					<dim>128</dim>
					<dim>1</dim>
					<dim>1</dim>
				</port>
			</input>
			<output>
				<port id="2" precision="FP32">
					<dim>1</dim>
					<dim>256</dim>
					<dim>40</dim>
					<dim>350</dim>
				</port>
			</output>
		</layer>
		<layer id="55" name="Constant_12117" type="Const" version="opset1">
			<data element_type="f32" shape="1, 256, 1, 1" offset="852992" size="1024"/>
			<output>
				<port id="0" precision="FP32">
					<dim>1</dim>
					<dim>256</dim>
					<dim>1</dim>
					<dim>1</dim>
				</port>
			</output>
		</layer>
		<layer id="56" name="202" type="Add" version="opset1">
			<data auto_broadcast="numpy"/>
			<rt_info>
				<attribute name="fused_names" version="0" value="202, model.cnn_encoder.layer1.2.bn3.bias, model.cnn_encoder.layer1.2.bn3.running_mean, model.cnn_encoder.layer1.2.bn3.running_var, model.cnn_encoder.layer1.2.bn3.weight"/>
			</rt_info>
			<input>
				<port id="0" precision="FP32">
					<dim>1</dim>
					<dim>256</dim>
					<dim>40</dim>
					<dim>350</dim>
				</port>
				<port id="1" precision="FP32">
					<dim>1</dim>
					<dim>256</dim>
					<dim>1</dim>
					<dim>1</dim>
				</port>
			</input>
			<output>
				<port id="2" precision="FP32" names="202">
					<dim>1</dim>
					<dim>256</dim>
					<dim>40</dim>
					<dim>350</dim>
				</port>
			</output>
		</layer>
		<layer id="57" name="203" type="Add" version="opset1">
			<data auto_broadcast="numpy"/>
			<rt_info>
				<attribute name="fused_names" version="0" value="203"/>
			</rt_info>
			<input>
				<port id="0" precision="FP32">
					<dim>1</dim>
					<dim>256</dim>
					<dim>40</dim>
					<dim>350</dim>
				</port>
				<port id="1" precision="FP32">
					<dim>1</dim>
					<dim>256</dim>
					<dim>40</dim>
					<dim>350</dim>
				</port>
			</input>
			<output>
				<port id="2" precision="FP32" names="203">
					<dim>1</dim>
					<dim>256</dim>
					<dim>40</dim>
					<dim>350</dim>
				</port>
			</output>
		</layer>
		<layer id="58" name="204" type="ReLU" version="opset1">
			<rt_info>
				<attribute name="fused_names" version="0" value="204"/>
			</rt_info>
			<input>
				<port id="0" precision="FP32">
					<dim>1</dim>
					<dim>256</dim>
					<dim>40</dim>
					<dim>350</dim>
				</port>
			</input>
			<output>
				<port id="1" precision="FP32" names="204">
					<dim>1</dim>
					<dim>256</dim>
					<dim>40</dim>
					<dim>350</dim>
				</port>
			</output>
		</layer>
		<layer id="59" name="Multiply_12319" type="Const" version="opset1">
			<data element_type="f32" shape="256, 256, 1, 1" offset="854016" size="262144"/>
			<output>
				<port id="0" precision="FP32">
					<dim>256</dim>
					<dim>256</dim>
					<dim>1</dim>
					<dim>1</dim>
				</port>
			</output>
		</layer>
		<layer id="60" name="Multiply_12119" type="Convolution" version="opset1">
			<data strides="1, 1" dilations="1, 1" pads_begin="0, 0" pads_end="0, 0" auto_pad="explicit"/>
			<rt_info>
				<attribute name="fused_names" version="0" value="205, 206, model.cnn_encoder.layer2.0.bn1.bias, model.cnn_encoder.layer2.0.bn1.running_mean, model.cnn_encoder.layer2.0.bn1.running_var, model.cnn_encoder.layer2.0.bn1.weight"/>
			</rt_info>
			<input>
				<port id="0" precision="FP32">
					<dim>1</dim>
					<dim>256</dim>
					<dim>40</dim>
					<dim>350</dim>
				</port>
				<port id="1" precision="FP32">
					<dim>256</dim>
					<dim>256</dim>
					<dim>1</dim>
					<dim>1</dim>
				</port>
			</input>
			<output>
				<port id="2" precision="FP32">
					<dim>1</dim>
					<dim>256</dim>
					<dim>40</dim>
					<dim>350</dim>
				</port>
			</output>
		</layer>
		<layer id="61" name="Constant_12124" type="Const" version="opset1">
			<data element_type="f32" shape="1, 256, 1, 1" offset="1116160" size="1024"/>
			<output>
				<port id="0" precision="FP32">
					<dim>1</dim>
					<dim>256</dim>
					<dim>1</dim>
					<dim>1</dim>
				</port>
			</output>
		</layer>
		<layer id="62" name="206" type="Add" version="opset1">
			<data auto_broadcast="numpy"/>
			<rt_info>
				<attribute name="fused_names" version="0" value="206, model.cnn_encoder.layer2.0.bn1.bias, model.cnn_encoder.layer2.0.bn1.running_mean, model.cnn_encoder.layer2.0.bn1.running_var, model.cnn_encoder.layer2.0.bn1.weight"/>
			</rt_info>
			<input>
				<port id="0" precision="FP32">
					<dim>1</dim>
					<dim>256</dim>
					<dim>40</dim>
					<dim>350</dim>
				</port>
				<port id="1" precision="FP32">
					<dim>1</dim>
					<dim>256</dim>
					<dim>1</dim>
					<dim>1</dim>
				</port>
			</input>
			<output>
				<port id="2" precision="FP32" names="206">
					<dim>1</dim>
					<dim>256</dim>
					<dim>40</dim>
					<dim>350</dim>
				</port>
			</output>
		</layer>
		<layer id="63" name="207" type="ReLU" version="opset1">
			<rt_info>
				<attribute name="fused_names" version="0" value="207"/>
			</rt_info>
			<input>
				<port id="0" precision="FP32">
					<dim>1</dim>
					<dim>256</dim>
					<dim>40</dim>
					<dim>350</dim>
				</port>
			</input>
			<output>
				<port id="1" precision="FP32" names="207">
					<dim>1</dim>
					<dim>256</dim>
					<dim>40</dim>
					<dim>350</dim>
				</port>
			</output>
		</layer>
		<layer id="64" name="Multiply_12328" type="Const" version="opset1">
			<data element_type="f32" shape="32, 8, 8, 3, 3" offset="1117184" size="73728"/>
			<output>
				<port id="0" precision="FP32">
					<dim>32</dim>
					<dim>8</dim>
					<dim>8</dim>
					<dim>3</dim>
					<dim>3</dim>
				</port>
			</output>
		</layer>
		<layer id="65" name="Multiply_12126" type="GroupConvolution" version="opset1">
			<data strides="2, 2" pads_begin="1, 1" pads_end="1, 1" dilations="1, 1" auto_pad="explicit"/>
			<rt_info>
				<attribute name="fused_names" version="0" value="209, model.cnn_encoder.layer2.0.bn2.bias, model.cnn_encoder.layer2.0.bn2.running_mean, model.cnn_encoder.layer2.0.bn2.running_var, model.cnn_encoder.layer2.0.bn2.weight"/>
			</rt_info>
			<input>
				<port id="0" precision="FP32">
					<dim>1</dim>
					<dim>256</dim>
					<dim>40</dim>
					<dim>350</dim>
				</port>
				<port id="1" precision="FP32">
					<dim>32</dim>
					<dim>8</dim>
					<dim>8</dim>
					<dim>3</dim>
					<dim>3</dim>
				</port>
			</input>
			<output>
				<port id="2" precision="FP32" names="208">
					<dim>1</dim>
					<dim>256</dim>
					<dim>20</dim>
					<dim>175</dim>
				</port>
			</output>
		</layer>
		<layer id="66" name="Constant_12131" type="Const" version="opset1">
			<data element_type="f32" shape="1, 256, 1, 1" offset="1190912" size="1024"/>
			<output>
				<port id="0" precision="FP32">
					<dim>1</dim>
					<dim>256</dim>
					<dim>1</dim>
					<dim>1</dim>
				</port>
			</output>
		</layer>
		<layer id="67" name="209" type="Add" version="opset1">
			<data auto_broadcast="numpy"/>
			<rt_info>
				<attribute name="fused_names" version="0" value="209, model.cnn_encoder.layer2.0.bn2.bias, model.cnn_encoder.layer2.0.bn2.running_mean, model.cnn_encoder.layer2.0.bn2.running_var, model.cnn_encoder.layer2.0.bn2.weight"/>
			</rt_info>
			<input>
				<port id="0" precision="FP32">
					<dim>1</dim>
					<dim>256</dim>
					<dim>20</dim>
					<dim>175</dim>
				</port>
				<port id="1" precision="FP32">
					<dim>1</dim>
					<dim>256</dim>
					<dim>1</dim>
					<dim>1</dim>
				</port>
			</input>
			<output>
				<port id="2" precision="FP32" names="209">
					<dim>1</dim>
					<dim>256</dim>
					<dim>20</dim>
					<dim>175</dim>
				</port>
			</output>
		</layer>
		<layer id="68" name="210" type="ReLU" version="opset1">
			<rt_info>
				<attribute name="fused_names" version="0" value="210"/>
			</rt_info>
			<input>
				<port id="0" precision="FP32">
					<dim>1</dim>
					<dim>256</dim>
					<dim>20</dim>
					<dim>175</dim>
				</port>
			</input>
			<output>
				<port id="1" precision="FP32" names="210">
					<dim>1</dim>
					<dim>256</dim>
					<dim>20</dim>
					<dim>175</dim>
				</port>
			</output>
		</layer>
		<layer id="69" name="Multiply_12336" type="Const" version="opset1">
			<data element_type="f32" shape="512, 256, 1, 1" offset="1191936" size="524288"/>
			<output>
				<port id="0" precision="FP32">
					<dim>512</dim>
					<dim>256</dim>
					<dim>1</dim>
					<dim>1</dim>
				</port>
			</output>
		</layer>
		<layer id="70" name="Multiply_12133" type="Convolution" version="opset1">
			<data strides="1, 1" dilations="1, 1" pads_begin="0, 0" pads_end="0, 0" auto_pad="explicit"/>
			<rt_info>
				<attribute name="fused_names" version="0" value="211, 212, model.cnn_encoder.layer2.0.bn3.bias, model.cnn_encoder.layer2.0.bn3.running_mean, model.cnn_encoder.layer2.0.bn3.running_var, model.cnn_encoder.layer2.0.bn3.weight"/>
			</rt_info>
			<input>
				<port id="0" precision="FP32">
					<dim>1</dim>
					<dim>256</dim>
					<dim>20</dim>
					<dim>175</dim>
				</port>
				<port id="1" precision="FP32">
					<dim>512</dim>
					<dim>256</dim>
					<dim>1</dim>
					<dim>1</dim>
				</port>
			</input>
			<output>
				<port id="2" precision="FP32">
					<dim>1</dim>
					<dim>512</dim>
					<dim>20</dim>
					<dim>175</dim>
				</port>
			</output>
		</layer>
		<layer id="71" name="Constant_12138" type="Const" version="opset1">
			<data element_type="f32" shape="1, 512, 1, 1" offset="1716224" size="2048"/>
			<output>
				<port id="0" precision="FP32">
					<dim>1</dim>
					<dim>512</dim>
					<dim>1</dim>
					<dim>1</dim>
				</port>
			</output>
		</layer>
		<layer id="72" name="212" type="Add" version="opset1">
			<data auto_broadcast="numpy"/>
			<rt_info>
				<attribute name="fused_names" version="0" value="212, model.cnn_encoder.layer2.0.bn3.bias, model.cnn_encoder.layer2.0.bn3.running_mean, model.cnn_encoder.layer2.0.bn3.running_var, model.cnn_encoder.layer2.0.bn3.weight"/>
			</rt_info>
			<input>
				<port id="0" precision="FP32">
					<dim>1</dim>
					<dim>512</dim>
					<dim>20</dim>
					<dim>175</dim>
				</port>
				<port id="1" precision="FP32">
					<dim>1</dim>
					<dim>512</dim>
					<dim>1</dim>
					<dim>1</dim>
				</port>
			</input>
			<output>
				<port id="2" precision="FP32" names="212">
					<dim>1</dim>
					<dim>512</dim>
					<dim>20</dim>
					<dim>175</dim>
				</port>
			</output>
		</layer>
		<layer id="73" name="Multiply_12345" type="Const" version="opset1">
			<data element_type="f32" shape="512, 256, 1, 1" offset="1718272" size="524288"/>
			<output>
				<port id="0" precision="FP32">
					<dim>512</dim>
					<dim>256</dim>
					<dim>1</dim>
					<dim>1</dim>
				</port>
			</output>
		</layer>
		<layer id="74" name="Multiply_12140" type="Convolution" version="opset1">
			<data strides="2, 2" dilations="1, 1" pads_begin="0, 0" pads_end="0, 0" auto_pad="explicit"/>
			<rt_info>
				<attribute name="fused_names" version="0" value="213, 214, model.cnn_encoder.layer2.0.downsample.1.bias, model.cnn_encoder.layer2.0.downsample.1.running_mean, model.cnn_encoder.layer2.0.downsample.1.running_var, model.cnn_encoder.layer2.0.downsample.1.weight"/>
			</rt_info>
			<input>
				<port id="0" precision="FP32">
					<dim>1</dim>
					<dim>256</dim>
					<dim>40</dim>
					<dim>350</dim>
				</port>
				<port id="1" precision="FP32">
					<dim>512</dim>
					<dim>256</dim>
					<dim>1</dim>
					<dim>1</dim>
				</port>
			</input>
			<output>
				<port id="2" precision="FP32">
					<dim>1</dim>
					<dim>512</dim>
					<dim>20</dim>
					<dim>175</dim>
				</port>
			</output>
		</layer>
		<layer id="75" name="Constant_12145" type="Const" version="opset1">
			<data element_type="f32" shape="1, 512, 1, 1" offset="2242560" size="2048"/>
			<output>
				<port id="0" precision="FP32">
					<dim>1</dim>
					<dim>512</dim>
					<dim>1</dim>
					<dim>1</dim>
				</port>
			</output>
		</layer>
		<layer id="76" name="214" type="Add" version="opset1">
			<data auto_broadcast="numpy"/>
			<rt_info>
				<attribute name="fused_names" version="0" value="214, model.cnn_encoder.layer2.0.downsample.1.bias, model.cnn_encoder.layer2.0.downsample.1.running_mean, model.cnn_encoder.layer2.0.downsample.1.running_var, model.cnn_encoder.layer2.0.downsample.1.weight"/>
			</rt_info>
			<input>
				<port id="0" precision="FP32">
					<dim>1</dim>
					<dim>512</dim>
					<dim>20</dim>
					<dim>175</dim>
				</port>
				<port id="1" precision="FP32">
					<dim>1</dim>
					<dim>512</dim>
					<dim>1</dim>
					<dim>1</dim>
				</port>
			</input>
			<output>
				<port id="2" precision="FP32" names="214">
					<dim>1</dim>
					<dim>512</dim>
					<dim>20</dim>
					<dim>175</dim>
				</port>
			</output>
		</layer>
		<layer id="77" name="215" type="Add" version="opset1">
			<data auto_broadcast="numpy"/>
			<rt_info>
				<attribute name="fused_names" version="0" value="215"/>
			</rt_info>
			<input>
				<port id="0" precision="FP32">
					<dim>1</dim>
					<dim>512</dim>
					<dim>20</dim>
					<dim>175</dim>
				</port>
				<port id="1" precision="FP32">
					<dim>1</dim>
					<dim>512</dim>
					<dim>20</dim>
					<dim>175</dim>
				</port>
			</input>
			<output>
				<port id="2" precision="FP32" names="215">
					<dim>1</dim>
					<dim>512</dim>
					<dim>20</dim>
					<dim>175</dim>
				</port>
			</output>
		</layer>
		<layer id="78" name="216" type="ReLU" version="opset1">
			<rt_info>
				<attribute name="fused_names" version="0" value="216"/>
			</rt_info>
			<input>
				<port id="0" precision="FP32">
					<dim>1</dim>
					<dim>512</dim>
					<dim>20</dim>
					<dim>175</dim>
				</port>
			</input>
			<output>
				<port id="1" precision="FP32" names="216">
					<dim>1</dim>
					<dim>512</dim>
					<dim>20</dim>
					<dim>175</dim>
				</port>
			</output>
		</layer>
		<layer id="79" name="Multiply_12354" type="Const" version="opset1">
			<data element_type="f32" shape="256, 512, 1, 1" offset="2244608" size="524288"/>
			<output>
				<port id="0" precision="FP32">
					<dim>256</dim>
					<dim>512</dim>
					<dim>1</dim>
					<dim>1</dim>
				</port>
			</output>
		</layer>
		<layer id="80" name="Multiply_12147" type="Convolution" version="opset1">
			<data strides="1, 1" dilations="1, 1" pads_begin="0, 0" pads_end="0, 0" auto_pad="explicit"/>
			<rt_info>
				<attribute name="fused_names" version="0" value="217, 218, model.cnn_encoder.layer2.1.bn1.bias, model.cnn_encoder.layer2.1.bn1.running_mean, model.cnn_encoder.layer2.1.bn1.running_var, model.cnn_encoder.layer2.1.bn1.weight"/>
			</rt_info>
			<input>
				<port id="0" precision="FP32">
					<dim>1</dim>
					<dim>512</dim>
					<dim>20</dim>
					<dim>175</dim>
				</port>
				<port id="1" precision="FP32">
					<dim>256</dim>
					<dim>512</dim>
					<dim>1</dim>
					<dim>1</dim>
				</port>
			</input>
			<output>
				<port id="2" precision="FP32">
					<dim>1</dim>
					<dim>256</dim>
					<dim>20</dim>
					<dim>175</dim>
				</port>
			</output>
		</layer>
		<layer id="81" name="Constant_12152" type="Const" version="opset1">
			<data element_type="f32" shape="1, 256, 1, 1" offset="2768896" size="1024"/>
			<output>
				<port id="0" precision="FP32">
					<dim>1</dim>
					<dim>256</dim>
					<dim>1</dim>
					<dim>1</dim>
				</port>
			</output>
		</layer>
		<layer id="82" name="218" type="Add" version="opset1">
			<data auto_broadcast="numpy"/>
			<rt_info>
				<attribute name="fused_names" version="0" value="218, model.cnn_encoder.layer2.1.bn1.bias, model.cnn_encoder.layer2.1.bn1.running_mean, model.cnn_encoder.layer2.1.bn1.running_var, model.cnn_encoder.layer2.1.bn1.weight"/>
			</rt_info>
			<input>
				<port id="0" precision="FP32">
					<dim>1</dim>
					<dim>256</dim>
					<dim>20</dim>
					<dim>175</dim>
				</port>
				<port id="1" precision="FP32">
					<dim>1</dim>
					<dim>256</dim>
					<dim>1</dim>
					<dim>1</dim>
				</port>
			</input>
			<output>
				<port id="2" precision="FP32" names="218">
					<dim>1</dim>
					<dim>256</dim>
					<dim>20</dim>
					<dim>175</dim>
				</port>
			</output>
		</layer>
		<layer id="83" name="219" type="ReLU" version="opset1">
			<rt_info>
				<attribute name="fused_names" version="0" value="219"/>
			</rt_info>
			<input>
				<port id="0" precision="FP32">
					<dim>1</dim>
					<dim>256</dim>
					<dim>20</dim>
					<dim>175</dim>
				</port>
			</input>
			<output>
				<port id="1" precision="FP32" names="219">
					<dim>1</dim>
					<dim>256</dim>
					<dim>20</dim>
					<dim>175</dim>
				</port>
			</output>
		</layer>
		<layer id="84" name="Multiply_12363" type="Const" version="opset1">
			<data element_type="f32" shape="32, 8, 8, 3, 3" offset="2769920" size="73728"/>
			<output>
				<port id="0" precision="FP32">
					<dim>32</dim>
					<dim>8</dim>
					<dim>8</dim>
					<dim>3</dim>
					<dim>3</dim>
				</port>
			</output>
		</layer>
		<layer id="85" name="Multiply_12154" type="GroupConvolution" version="opset1">
			<data strides="1, 1" pads_begin="1, 1" pads_end="1, 1" dilations="1, 1" auto_pad="explicit"/>
			<rt_info>
				<attribute name="fused_names" version="0" value="221, model.cnn_encoder.layer2.1.bn2.bias, model.cnn_encoder.layer2.1.bn2.running_mean, model.cnn_encoder.layer2.1.bn2.running_var, model.cnn_encoder.layer2.1.bn2.weight"/>
			</rt_info>
			<input>
				<port id="0" precision="FP32">
					<dim>1</dim>
					<dim>256</dim>
					<dim>20</dim>
					<dim>175</dim>
				</port>
				<port id="1" precision="FP32">
					<dim>32</dim>
					<dim>8</dim>
					<dim>8</dim>
					<dim>3</dim>
					<dim>3</dim>
				</port>
			</input>
			<output>
				<port id="2" precision="FP32" names="220">
					<dim>1</dim>
					<dim>256</dim>
					<dim>20</dim>
					<dim>175</dim>
				</port>
			</output>
		</layer>
		<layer id="86" name="Constant_12159" type="Const" version="opset1">
			<data element_type="f32" shape="1, 256, 1, 1" offset="2843648" size="1024"/>
			<output>
				<port id="0" precision="FP32">
					<dim>1</dim>
					<dim>256</dim>
					<dim>1</dim>
					<dim>1</dim>
				</port>
			</output>
		</layer>
		<layer id="87" name="221" type="Add" version="opset1">
			<data auto_broadcast="numpy"/>
			<rt_info>
				<attribute name="fused_names" version="0" value="221, model.cnn_encoder.layer2.1.bn2.bias, model.cnn_encoder.layer2.1.bn2.running_mean, model.cnn_encoder.layer2.1.bn2.running_var, model.cnn_encoder.layer2.1.bn2.weight"/>
			</rt_info>
			<input>
				<port id="0" precision="FP32">
					<dim>1</dim>
					<dim>256</dim>
					<dim>20</dim>
					<dim>175</dim>
				</port>
				<port id="1" precision="FP32">
					<dim>1</dim>
					<dim>256</dim>
					<dim>1</dim>
					<dim>1</dim>
				</port>
			</input>
			<output>
				<port id="2" precision="FP32" names="221">
					<dim>1</dim>
					<dim>256</dim>
					<dim>20</dim>
					<dim>175</dim>
				</port>
			</output>
		</layer>
		<layer id="88" name="222" type="ReLU" version="opset1">
			<rt_info>
				<attribute name="fused_names" version="0" value="222"/>
			</rt_info>
			<input>
				<port id="0" precision="FP32">
					<dim>1</dim>
					<dim>256</dim>
					<dim>20</dim>
					<dim>175</dim>
				</port>
			</input>
			<output>
				<port id="1" precision="FP32" names="222">
					<dim>1</dim>
					<dim>256</dim>
					<dim>20</dim>
					<dim>175</dim>
				</port>
			</output>
		</layer>
		<layer id="89" name="Multiply_12371" type="Const" version="opset1">
			<data element_type="f32" shape="512, 256, 1, 1" offset="2844672" size="524288"/>
			<output>
				<port id="0" precision="FP32">
					<dim>512</dim>
					<dim>256</dim>
					<dim>1</dim>
					<dim>1</dim>
				</port>
			</output>
		</layer>
		<layer id="90" name="Multiply_12161" type="Convolution" version="opset1">
			<data strides="1, 1" dilations="1, 1" pads_begin="0, 0" pads_end="0, 0" auto_pad="explicit"/>
			<rt_info>
				<attribute name="fused_names" version="0" value="223, 224, model.cnn_encoder.layer2.1.bn3.bias, model.cnn_encoder.layer2.1.bn3.running_mean, model.cnn_encoder.layer2.1.bn3.running_var, model.cnn_encoder.layer2.1.bn3.weight"/>
			</rt_info>
			<input>
				<port id="0" precision="FP32">
					<dim>1</dim>
					<dim>256</dim>
					<dim>20</dim>
					<dim>175</dim>
				</port>
				<port id="1" precision="FP32">
					<dim>512</dim>
					<dim>256</dim>
					<dim>1</dim>
					<dim>1</dim>
				</port>
			</input>
			<output>
				<port id="2" precision="FP32">
					<dim>1</dim>
					<dim>512</dim>
					<dim>20</dim>
					<dim>175</dim>
				</port>
			</output>
		</layer>
		<layer id="91" name="Constant_12166" type="Const" version="opset1">
			<data element_type="f32" shape="1, 512, 1, 1" offset="3368960" size="2048"/>
			<output>
				<port id="0" precision="FP32">
					<dim>1</dim>
					<dim>512</dim>
					<dim>1</dim>
					<dim>1</dim>
				</port>
			</output>
		</layer>
		<layer id="92" name="224" type="Add" version="opset1">
			<data auto_broadcast="numpy"/>
			<rt_info>
				<attribute name="fused_names" version="0" value="224, model.cnn_encoder.layer2.1.bn3.bias, model.cnn_encoder.layer2.1.bn3.running_mean, model.cnn_encoder.layer2.1.bn3.running_var, model.cnn_encoder.layer2.1.bn3.weight"/>
			</rt_info>
			<input>
				<port id="0" precision="FP32">
					<dim>1</dim>
					<dim>512</dim>
					<dim>20</dim>
					<dim>175</dim>
				</port>
				<port id="1" precision="FP32">
					<dim>1</dim>
					<dim>512</dim>
					<dim>1</dim>
					<dim>1</dim>
				</port>
			</input>
			<output>
				<port id="2" precision="FP32" names="224">
					<dim>1</dim>
					<dim>512</dim>
					<dim>20</dim>
					<dim>175</dim>
				</port>
			</output>
		</layer>
		<layer id="93" name="225" type="Add" version="opset1">
			<data auto_broadcast="numpy"/>
			<rt_info>
				<attribute name="fused_names" version="0" value="225"/>
			</rt_info>
			<input>
				<port id="0" precision="FP32">
					<dim>1</dim>
					<dim>512</dim>
					<dim>20</dim>
					<dim>175</dim>
				</port>
				<port id="1" precision="FP32">
					<dim>1</dim>
					<dim>512</dim>
					<dim>20</dim>
					<dim>175</dim>
				</port>
			</input>
			<output>
				<port id="2" precision="FP32" names="225">
					<dim>1</dim>
					<dim>512</dim>
					<dim>20</dim>
					<dim>175</dim>
				</port>
			</output>
		</layer>
		<layer id="94" name="226" type="ReLU" version="opset1">
			<rt_info>
				<attribute name="fused_names" version="0" value="226"/>
			</rt_info>
			<input>
				<port id="0" precision="FP32">
					<dim>1</dim>
					<dim>512</dim>
					<dim>20</dim>
					<dim>175</dim>
				</port>
			</input>
			<output>
				<port id="1" precision="FP32" names="226">
					<dim>1</dim>
					<dim>512</dim>
					<dim>20</dim>
					<dim>175</dim>
				</port>
			</output>
		</layer>
		<layer id="95" name="Multiply_12380" type="Const" version="opset1">
			<data element_type="f32" shape="256, 512, 1, 1" offset="3371008" size="524288"/>
			<output>
				<port id="0" precision="FP32">
					<dim>256</dim>
					<dim>512</dim>
					<dim>1</dim>
					<dim>1</dim>
				</port>
			</output>
		</layer>
		<layer id="96" name="Multiply_12168" type="Convolution" version="opset1">
			<data strides="1, 1" dilations="1, 1" pads_begin="0, 0" pads_end="0, 0" auto_pad="explicit"/>
			<rt_info>
				<attribute name="fused_names" version="0" value="227, 228, model.cnn_encoder.layer2.2.bn1.bias, model.cnn_encoder.layer2.2.bn1.running_mean, model.cnn_encoder.layer2.2.bn1.running_var, model.cnn_encoder.layer2.2.bn1.weight"/>
			</rt_info>
			<input>
				<port id="0" precision="FP32">
					<dim>1</dim>
					<dim>512</dim>
					<dim>20</dim>
					<dim>175</dim>
				</port>
				<port id="1" precision="FP32">
					<dim>256</dim>
					<dim>512</dim>
					<dim>1</dim>
					<dim>1</dim>
				</port>
			</input>
			<output>
				<port id="2" precision="FP32">
					<dim>1</dim>
					<dim>256</dim>
					<dim>20</dim>
					<dim>175</dim>
				</port>
			</output>
		</layer>
		<layer id="97" name="Constant_12173" type="Const" version="opset1">
			<data element_type="f32" shape="1, 256, 1, 1" offset="3895296" size="1024"/>
			<output>
				<port id="0" precision="FP32">
					<dim>1</dim>
					<dim>256</dim>
					<dim>1</dim>
					<dim>1</dim>
				</port>
			</output>
		</layer>
		<layer id="98" name="228" type="Add" version="opset1">
			<data auto_broadcast="numpy"/>
			<rt_info>
				<attribute name="fused_names" version="0" value="228, model.cnn_encoder.layer2.2.bn1.bias, model.cnn_encoder.layer2.2.bn1.running_mean, model.cnn_encoder.layer2.2.bn1.running_var, model.cnn_encoder.layer2.2.bn1.weight"/>
			</rt_info>
			<input>
				<port id="0" precision="FP32">
					<dim>1</dim>
					<dim>256</dim>
					<dim>20</dim>
					<dim>175</dim>
				</port>
				<port id="1" precision="FP32">
					<dim>1</dim>
					<dim>256</dim>
					<dim>1</dim>
					<dim>1</dim>
				</port>
			</input>
			<output>
				<port id="2" precision="FP32" names="228">
					<dim>1</dim>
					<dim>256</dim>
					<dim>20</dim>
					<dim>175</dim>
				</port>
			</output>
		</layer>
		<layer id="99" name="229" type="ReLU" version="opset1">
			<rt_info>
				<attribute name="fused_names" version="0" value="229"/>
			</rt_info>
			<input>
				<port id="0" precision="FP32">
					<dim>1</dim>
					<dim>256</dim>
					<dim>20</dim>
					<dim>175</dim>
				</port>
			</input>
			<output>
				<port id="1" precision="FP32" names="229">
					<dim>1</dim>
					<dim>256</dim>
					<dim>20</dim>
					<dim>175</dim>
				</port>
			</output>
		</layer>
		<layer id="100" name="Multiply_12389" type="Const" version="opset1">
			<data element_type="f32" shape="32, 8, 8, 3, 3" offset="3896320" size="73728"/>
			<output>
				<port id="0" precision="FP32">
					<dim>32</dim>
					<dim>8</dim>
					<dim>8</dim>
					<dim>3</dim>
					<dim>3</dim>
				</port>
			</output>
		</layer>
		<layer id="101" name="Multiply_12175" type="GroupConvolution" version="opset1">
			<data strides="1, 1" pads_begin="1, 1" pads_end="1, 1" dilations="1, 1" auto_pad="explicit"/>
			<rt_info>
				<attribute name="fused_names" version="0" value="231, model.cnn_encoder.layer2.2.bn2.bias, model.cnn_encoder.layer2.2.bn2.running_mean, model.cnn_encoder.layer2.2.bn2.running_var, model.cnn_encoder.layer2.2.bn2.weight"/>
			</rt_info>
			<input>
				<port id="0" precision="FP32">
					<dim>1</dim>
					<dim>256</dim>
					<dim>20</dim>
					<dim>175</dim>
				</port>
				<port id="1" precision="FP32">
					<dim>32</dim>
					<dim>8</dim>
					<dim>8</dim>
					<dim>3</dim>
					<dim>3</dim>
				</port>
			</input>
			<output>
				<port id="2" precision="FP32" names="230">
					<dim>1</dim>
					<dim>256</dim>
					<dim>20</dim>
					<dim>175</dim>
				</port>
			</output>
		</layer>
		<layer id="102" name="Constant_12180" type="Const" version="opset1">
			<data element_type="f32" shape="1, 256, 1, 1" offset="3970048" size="1024"/>
			<output>
				<port id="0" precision="FP32">
					<dim>1</dim>
					<dim>256</dim>
					<dim>1</dim>
					<dim>1</dim>
				</port>
			</output>
		</layer>
		<layer id="103" name="231" type="Add" version="opset1">
			<data auto_broadcast="numpy"/>
			<rt_info>
				<attribute name="fused_names" version="0" value="231, model.cnn_encoder.layer2.2.bn2.bias, model.cnn_encoder.layer2.2.bn2.running_mean, model.cnn_encoder.layer2.2.bn2.running_var, model.cnn_encoder.layer2.2.bn2.weight"/>
			</rt_info>
			<input>
				<port id="0" precision="FP32">
					<dim>1</dim>
					<dim>256</dim>
					<dim>20</dim>
					<dim>175</dim>
				</port>
				<port id="1" precision="FP32">
					<dim>1</dim>
					<dim>256</dim>
					<dim>1</dim>
					<dim>1</dim>
				</port>
			</input>
			<output>
				<port id="2" precision="FP32" names="231">
					<dim>1</dim>
					<dim>256</dim>
					<dim>20</dim>
					<dim>175</dim>
				</port>
			</output>
		</layer>
		<layer id="104" name="232" type="ReLU" version="opset1">
			<rt_info>
				<attribute name="fused_names" version="0" value="232"/>
			</rt_info>
			<input>
				<port id="0" precision="FP32">
					<dim>1</dim>
					<dim>256</dim>
					<dim>20</dim>
					<dim>175</dim>
				</port>
			</input>
			<output>
				<port id="1" precision="FP32" names="232">
					<dim>1</dim>
					<dim>256</dim>
					<dim>20</dim>
					<dim>175</dim>
				</port>
			</output>
		</layer>
		<layer id="105" name="Multiply_12397" type="Const" version="opset1">
			<data element_type="f32" shape="512, 256, 1, 1" offset="3971072" size="524288"/>
			<output>
				<port id="0" precision="FP32">
					<dim>512</dim>
					<dim>256</dim>
					<dim>1</dim>
					<dim>1</dim>
				</port>
			</output>
		</layer>
		<layer id="106" name="Multiply_12182" type="Convolution" version="opset1">
			<data strides="1, 1" dilations="1, 1" pads_begin="0, 0" pads_end="0, 0" auto_pad="explicit"/>
			<rt_info>
				<attribute name="fused_names" version="0" value="233, 234, model.cnn_encoder.layer2.2.bn3.bias, model.cnn_encoder.layer2.2.bn3.running_mean, model.cnn_encoder.layer2.2.bn3.running_var, model.cnn_encoder.layer2.2.bn3.weight"/>
			</rt_info>
			<input>
				<port id="0" precision="FP32">
					<dim>1</dim>
					<dim>256</dim>
					<dim>20</dim>
					<dim>175</dim>
				</port>
				<port id="1" precision="FP32">
					<dim>512</dim>
					<dim>256</dim>
					<dim>1</dim>
					<dim>1</dim>
				</port>
			</input>
			<output>
				<port id="2" precision="FP32">
					<dim>1</dim>
					<dim>512</dim>
					<dim>20</dim>
					<dim>175</dim>
				</port>
			</output>
		</layer>
		<layer id="107" name="Constant_12187" type="Const" version="opset1">
			<data element_type="f32" shape="1, 512, 1, 1" offset="4495360" size="2048"/>
			<output>
				<port id="0" precision="FP32">
					<dim>1</dim>
					<dim>512</dim>
					<dim>1</dim>
					<dim>1</dim>
				</port>
			</output>
		</layer>
		<layer id="108" name="234" type="Add" version="opset1">
			<data auto_broadcast="numpy"/>
			<rt_info>
				<attribute name="fused_names" version="0" value="234, model.cnn_encoder.layer2.2.bn3.bias, model.cnn_encoder.layer2.2.bn3.running_mean, model.cnn_encoder.layer2.2.bn3.running_var, model.cnn_encoder.layer2.2.bn3.weight"/>
			</rt_info>
			<input>
				<port id="0" precision="FP32">
					<dim>1</dim>
					<dim>512</dim>
					<dim>20</dim>
					<dim>175</dim>
				</port>
				<port id="1" precision="FP32">
					<dim>1</dim>
					<dim>512</dim>
					<dim>1</dim>
					<dim>1</dim>
				</port>
			</input>
			<output>
				<port id="2" precision="FP32" names="234">
					<dim>1</dim>
					<dim>512</dim>
					<dim>20</dim>
					<dim>175</dim>
				</port>
			</output>
		</layer>
		<layer id="109" name="235" type="Add" version="opset1">
			<data auto_broadcast="numpy"/>
			<rt_info>
				<attribute name="fused_names" version="0" value="235"/>
			</rt_info>
			<input>
				<port id="0" precision="FP32">
					<dim>1</dim>
					<dim>512</dim>
					<dim>20</dim>
					<dim>175</dim>
				</port>
				<port id="1" precision="FP32">
					<dim>1</dim>
					<dim>512</dim>
					<dim>20</dim>
					<dim>175</dim>
				</port>
			</input>
			<output>
				<port id="2" precision="FP32" names="235">
					<dim>1</dim>
					<dim>512</dim>
					<dim>20</dim>
					<dim>175</dim>
				</port>
			</output>
		</layer>
		<layer id="110" name="236" type="ReLU" version="opset1">
			<rt_info>
				<attribute name="fused_names" version="0" value="236"/>
			</rt_info>
			<input>
				<port id="0" precision="FP32">
					<dim>1</dim>
					<dim>512</dim>
					<dim>20</dim>
					<dim>175</dim>
				</port>
			</input>
			<output>
				<port id="1" precision="FP32" names="236">
					<dim>1</dim>
					<dim>512</dim>
					<dim>20</dim>
					<dim>175</dim>
				</port>
			</output>
		</layer>
		<layer id="111" name="Multiply_12406" type="Const" version="opset1">
			<data element_type="f32" shape="256, 512, 1, 1" offset="4497408" size="524288"/>
			<output>
				<port id="0" precision="FP32">
					<dim>256</dim>
					<dim>512</dim>
					<dim>1</dim>
					<dim>1</dim>
				</port>
			</output>
		</layer>
		<layer id="112" name="Multiply_12189" type="Convolution" version="opset1">
			<data strides="1, 1" dilations="1, 1" pads_begin="0, 0" pads_end="0, 0" auto_pad="explicit"/>
			<rt_info>
				<attribute name="fused_names" version="0" value="237, 238, model.cnn_encoder.layer2.3.bn1.bias, model.cnn_encoder.layer2.3.bn1.running_mean, model.cnn_encoder.layer2.3.bn1.running_var, model.cnn_encoder.layer2.3.bn1.weight"/>
			</rt_info>
			<input>
				<port id="0" precision="FP32">
					<dim>1</dim>
					<dim>512</dim>
					<dim>20</dim>
					<dim>175</dim>
				</port>
				<port id="1" precision="FP32">
					<dim>256</dim>
					<dim>512</dim>
					<dim>1</dim>
					<dim>1</dim>
				</port>
			</input>
			<output>
				<port id="2" precision="FP32">
					<dim>1</dim>
					<dim>256</dim>
					<dim>20</dim>
					<dim>175</dim>
				</port>
			</output>
		</layer>
		<layer id="113" name="Constant_12194" type="Const" version="opset1">
			<data element_type="f32" shape="1, 256, 1, 1" offset="5021696" size="1024"/>
			<output>
				<port id="0" precision="FP32">
					<dim>1</dim>
					<dim>256</dim>
					<dim>1</dim>
					<dim>1</dim>
				</port>
			</output>
		</layer>
		<layer id="114" name="238" type="Add" version="opset1">
			<data auto_broadcast="numpy"/>
			<rt_info>
				<attribute name="fused_names" version="0" value="238, model.cnn_encoder.layer2.3.bn1.bias, model.cnn_encoder.layer2.3.bn1.running_mean, model.cnn_encoder.layer2.3.bn1.running_var, model.cnn_encoder.layer2.3.bn1.weight"/>
			</rt_info>
			<input>
				<port id="0" precision="FP32">
					<dim>1</dim>
					<dim>256</dim>
					<dim>20</dim>
					<dim>175</dim>
				</port>
				<port id="1" precision="FP32">
					<dim>1</dim>
					<dim>256</dim>
					<dim>1</dim>
					<dim>1</dim>
				</port>
			</input>
			<output>
				<port id="2" precision="FP32" names="238">
					<dim>1</dim>
					<dim>256</dim>
					<dim>20</dim>
					<dim>175</dim>
				</port>
			</output>
		</layer>
		<layer id="115" name="239" type="ReLU" version="opset1">
			<rt_info>
				<attribute name="fused_names" version="0" value="239"/>
			</rt_info>
			<input>
				<port id="0" precision="FP32">
					<dim>1</dim>
					<dim>256</dim>
					<dim>20</dim>
					<dim>175</dim>
				</port>
			</input>
			<output>
				<port id="1" precision="FP32" names="239">
					<dim>1</dim>
					<dim>256</dim>
					<dim>20</dim>
					<dim>175</dim>
				</port>
			</output>
		</layer>
		<layer id="116" name="Multiply_12415" type="Const" version="opset1">
			<data element_type="f32" shape="32, 8, 8, 3, 3" offset="5022720" size="73728"/>
			<output>
				<port id="0" precision="FP32">
					<dim>32</dim>
					<dim>8</dim>
					<dim>8</dim>
					<dim>3</dim>
					<dim>3</dim>
				</port>
			</output>
		</layer>
		<layer id="117" name="Multiply_12196" type="GroupConvolution" version="opset1">
			<data strides="1, 1" pads_begin="1, 1" pads_end="1, 1" dilations="1, 1" auto_pad="explicit"/>
			<rt_info>
				<attribute name="fused_names" version="0" value="241, model.cnn_encoder.layer2.3.bn2.bias, model.cnn_encoder.layer2.3.bn2.running_mean, model.cnn_encoder.layer2.3.bn2.running_var, model.cnn_encoder.layer2.3.bn2.weight"/>
			</rt_info>
			<input>
				<port id="0" precision="FP32">
					<dim>1</dim>
					<dim>256</dim>
					<dim>20</dim>
					<dim>175</dim>
				</port>
				<port id="1" precision="FP32">
					<dim>32</dim>
					<dim>8</dim>
					<dim>8</dim>
					<dim>3</dim>
					<dim>3</dim>
				</port>
			</input>
			<output>
				<port id="2" precision="FP32" names="240">
					<dim>1</dim>
					<dim>256</dim>
					<dim>20</dim>
					<dim>175</dim>
				</port>
			</output>
		</layer>
		<layer id="118" name="Constant_12201" type="Const" version="opset1">
			<data element_type="f32" shape="1, 256, 1, 1" offset="5096448" size="1024"/>
			<output>
				<port id="0" precision="FP32">
					<dim>1</dim>
					<dim>256</dim>
					<dim>1</dim>
					<dim>1</dim>
				</port>
			</output>
		</layer>
		<layer id="119" name="241" type="Add" version="opset1">
			<data auto_broadcast="numpy"/>
			<rt_info>
				<attribute name="fused_names" version="0" value="241, model.cnn_encoder.layer2.3.bn2.bias, model.cnn_encoder.layer2.3.bn2.running_mean, model.cnn_encoder.layer2.3.bn2.running_var, model.cnn_encoder.layer2.3.bn2.weight"/>
			</rt_info>
			<input>
				<port id="0" precision="FP32">
					<dim>1</dim>
					<dim>256</dim>
					<dim>20</dim>
					<dim>175</dim>
				</port>
				<port id="1" precision="FP32">
					<dim>1</dim>
					<dim>256</dim>
					<dim>1</dim>
					<dim>1</dim>
				</port>
			</input>
			<output>
				<port id="2" precision="FP32" names="241">
					<dim>1</dim>
					<dim>256</dim>
					<dim>20</dim>
					<dim>175</dim>
				</port>
			</output>
		</layer>
		<layer id="120" name="242" type="ReLU" version="opset1">
			<rt_info>
				<attribute name="fused_names" version="0" value="242"/>
			</rt_info>
			<input>
				<port id="0" precision="FP32">
					<dim>1</dim>
					<dim>256</dim>
					<dim>20</dim>
					<dim>175</dim>
				</port>
			</input>
			<output>
				<port id="1" precision="FP32" names="242">
					<dim>1</dim>
					<dim>256</dim>
					<dim>20</dim>
					<dim>175</dim>
				</port>
			</output>
		</layer>
		<layer id="121" name="Multiply_12423" type="Const" version="opset1">
			<data element_type="f32" shape="512, 256, 1, 1" offset="5097472" size="524288"/>
			<output>
				<port id="0" precision="FP32">
					<dim>512</dim>
					<dim>256</dim>
					<dim>1</dim>
					<dim>1</dim>
				</port>
			</output>
		</layer>
		<layer id="122" name="Multiply_12203" type="Convolution" version="opset1">
			<data strides="1, 1" dilations="1, 1" pads_begin="0, 0" pads_end="0, 0" auto_pad="explicit"/>
			<rt_info>
				<attribute name="fused_names" version="0" value="243, 244, model.cnn_encoder.layer2.3.bn3.bias, model.cnn_encoder.layer2.3.bn3.running_mean, model.cnn_encoder.layer2.3.bn3.running_var, model.cnn_encoder.layer2.3.bn3.weight"/>
			</rt_info>
			<input>
				<port id="0" precision="FP32">
					<dim>1</dim>
					<dim>256</dim>
					<dim>20</dim>
					<dim>175</dim>
				</port>
				<port id="1" precision="FP32">
					<dim>512</dim>
					<dim>256</dim>
					<dim>1</dim>
					<dim>1</dim>
				</port>
			</input>
			<output>
				<port id="2" precision="FP32">
					<dim>1</dim>
					<dim>512</dim>
					<dim>20</dim>
					<dim>175</dim>
				</port>
			</output>
		</layer>
		<layer id="123" name="Constant_12208" type="Const" version="opset1">
			<data element_type="f32" shape="1, 512, 1, 1" offset="5621760" size="2048"/>
			<output>
				<port id="0" precision="FP32">
					<dim>1</dim>
					<dim>512</dim>
					<dim>1</dim>
					<dim>1</dim>
				</port>
			</output>
		</layer>
		<layer id="124" name="244" type="Add" version="opset1">
			<data auto_broadcast="numpy"/>
			<rt_info>
				<attribute name="fused_names" version="0" value="244, model.cnn_encoder.layer2.3.bn3.bias, model.cnn_encoder.layer2.3.bn3.running_mean, model.cnn_encoder.layer2.3.bn3.running_var, model.cnn_encoder.layer2.3.bn3.weight"/>
			</rt_info>
			<input>
				<port id="0" precision="FP32">
					<dim>1</dim>
					<dim>512</dim>
					<dim>20</dim>
					<dim>175</dim>
				</port>
				<port id="1" precision="FP32">
					<dim>1</dim>
					<dim>512</dim>
					<dim>1</dim>
					<dim>1</dim>
				</port>
			</input>
			<output>
				<port id="2" precision="FP32" names="244">
					<dim>1</dim>
					<dim>512</dim>
					<dim>20</dim>
					<dim>175</dim>
				</port>
			</output>
		</layer>
		<layer id="125" name="245" type="Add" version="opset1">
			<data auto_broadcast="numpy"/>
			<rt_info>
				<attribute name="fused_names" version="0" value="245"/>
			</rt_info>
			<input>
				<port id="0" precision="FP32">
					<dim>1</dim>
					<dim>512</dim>
					<dim>20</dim>
					<dim>175</dim>
				</port>
				<port id="1" precision="FP32">
					<dim>1</dim>
					<dim>512</dim>
					<dim>20</dim>
					<dim>175</dim>
				</port>
			</input>
			<output>
				<port id="2" precision="FP32" names="245">
					<dim>1</dim>
					<dim>512</dim>
					<dim>20</dim>
					<dim>175</dim>
				</port>
			</output>
		</layer>
		<layer id="126" name="246" type="ReLU" version="opset1">
			<rt_info>
				<attribute name="fused_names" version="0" value="246"/>
			</rt_info>
			<input>
				<port id="0" precision="FP32">
					<dim>1</dim>
					<dim>512</dim>
					<dim>20</dim>
					<dim>175</dim>
				</port>
			</input>
			<output>
				<port id="1" precision="FP32" names="246">
					<dim>1</dim>
					<dim>512</dim>
					<dim>20</dim>
					<dim>175</dim>
				</port>
			</output>
		</layer>
		<layer id="127" name="Constant_782" type="Const" version="opset1">
			<data element_type="i64" shape="4" offset="5623808" size="32"/>
			<rt_info>
				<attribute name="fused_names" version="0" value="Constant_782"/>
			</rt_info>
			<output>
				<port id="0" precision="I64">
					<dim>4</dim>
				</port>
			</output>
		</layer>
		<layer id="128" name="247" type="Transpose" version="opset1">
			<rt_info>
				<attribute name="fused_names" version="0" value="247"/>
			</rt_info>
			<input>
				<port id="0" precision="FP32">
					<dim>1</dim>
					<dim>512</dim>
					<dim>20</dim>
					<dim>175</dim>
				</port>
				<port id="1" precision="I64">
					<dim>4</dim>
				</port>
			</input>
			<output>
				<port id="2" precision="FP32" names="247">
					<dim>1</dim>
					<dim>20</dim>
					<dim>175</dim>
					<dim>512</dim>
				</port>
			</output>
		</layer>
		<layer id="129" name="248" type="ShapeOf" version="opset3">
			<data output_type="i64"/>
			<rt_info>
				<attribute name="fused_names" version="0" value="248, 251, 254, 257"/>
			</rt_info>
			<input>
				<port id="0" precision="FP32">
					<dim>1</dim>
					<dim>20</dim>
					<dim>175</dim>
					<dim>512</dim>
				</port>
			</input>
			<output>
				<port id="1" precision="I64" names="248,251,254,257">
					<dim>4</dim>
				</port>
			</output>
		</layer>
		<layer id="130" name="249" type="Const" version="opset1">
			<data element_type="i64" shape="" offset="5623840" size="8"/>
			<rt_info>
				<attribute name="fused_names" version="0" value="249"/>
			</rt_info>
			<output>
				<port id="0" precision="I64" names="249"/>
			</output>
		</layer>
		<layer id="131" name="Constant_786" type="Const" version="opset1">
			<data element_type="i64" shape="" offset="5623840" size="8"/>
			<rt_info>
				<attribute name="fused_names" version="0" value="Constant_786"/>
			</rt_info>
			<output>
				<port id="0" precision="I64"/>
			</output>
		</layer>
		<layer id="132" name="250" type="Gather" version="opset8">
			<data batch_dims="0"/>
			<rt_info>
				<attribute name="fused_names" version="0" value="249, 250, Constant_786"/>
			</rt_info>
			<input>
				<port id="0" precision="I64">
					<dim>4</dim>
				</port>
				<port id="1" precision="I64"/>
				<port id="2" precision="I64"/>
			</input>
			<output>
				<port id="3" precision="I64" names="250"/>
			</output>
		</layer>
		<layer id="133" name="252" type="Const" version="opset1">
			<data element_type="i64" shape="" offset="5623848" size="8"/>
			<rt_info>
				<attribute name="fused_names" version="0" value="252"/>
			</rt_info>
			<output>
				<port id="0" precision="I64" names="252"/>
			</output>
		</layer>
		<layer id="134" name="Constant_790" type="Const" version="opset1">
			<data element_type="i64" shape="" offset="5623840" size="8"/>
			<rt_info>
				<attribute name="fused_names" version="0" value="Constant_790"/>
			</rt_info>
			<output>
				<port id="0" precision="I64"/>
			</output>
		</layer>
		<layer id="135" name="253" type="Gather" version="opset8">
			<data batch_dims="0"/>
			<rt_info>
				<attribute name="fused_names" version="0" value="252, 253, Constant_790"/>
			</rt_info>
			<input>
				<port id="0" precision="I64">
					<dim>4</dim>
				</port>
				<port id="1" precision="I64"/>
				<port id="2" precision="I64"/>
			</input>
			<output>
				<port id="3" precision="I64" names="253"/>
			</output>
		</layer>
		<layer id="136" name="260" type="Multiply" version="opset1">
			<data auto_broadcast="numpy"/>
			<rt_info>
				<attribute name="fused_names" version="0" value="260"/>
			</rt_info>
			<input>
				<port id="0" precision="I64"/>
				<port id="1" precision="I64"/>
			</input>
			<output>
				<port id="2" precision="I64" names="260"/>
			</output>
		</layer>
		<layer id="137" name="Constant_801" type="Const" version="opset1">
			<data element_type="i64" shape="1" offset="5623840" size="8"/>
			<rt_info>
				<attribute name="fused_names" version="0" value="Constant_801"/>
			</rt_info>
			<output>
				<port id="0" precision="I64">
					<dim>1</dim>
				</port>
			</output>
		</layer>
		<layer id="138" name="261" type="Unsqueeze" version="opset1">
			<rt_info>
				<attribute name="fused_names" version="0" value="261, Constant_801"/>
			</rt_info>
			<input>
				<port id="0" precision="I64"/>
				<port id="1" precision="I64">
					<dim>1</dim>
				</port>
			</input>
			<output>
				<port id="2" precision="I64" names="261">
					<dim>1</dim>
				</port>
			</output>
		</layer>
		<layer id="139" name="Constant_7008" type="Const" version="opset1">
			<data element_type="i64" shape="2" offset="5623856" size="16"/>
			<rt_info>
				<attribute name="fused_names" version="0" value="264"/>
			</rt_info>
			<output>
				<port id="0" precision="I64">
					<dim>2</dim>
				</port>
			</output>
		</layer>
		<layer id="140" name="Constant_7009" type="Const" version="opset1">
			<data element_type="i64" shape="" offset="5623840" size="8"/>
			<output>
				<port id="0" precision="I64"/>
			</output>
		</layer>
		<layer id="141" name="Gather_7010" type="Gather" version="opset8">
			<data batch_dims="0"/>
			<rt_info>
				<attribute name="fused_names" version="0" value="264"/>
			</rt_info>
			<input>
				<port id="0" precision="I64">
					<dim>4</dim>
				</port>
				<port id="1" precision="I64">
					<dim>2</dim>
				</port>
				<port id="2" precision="I64"/>
			</input>
			<output>
				<port id="3" precision="I64">
					<dim>2</dim>
				</port>
			</output>
		</layer>
		<layer id="142" name="264" type="Concat" version="opset1">
			<data axis="0"/>
			<rt_info>
				<attribute name="fused_names" version="0" value="264"/>
			</rt_info>
			<input>
				<port id="0" precision="I64">
					<dim>1</dim>
				</port>
				<port id="1" precision="I64">
					<dim>2</dim>
				</port>
			</input>
			<output>
				<port id="2" precision="I64" names="264">
					<dim>3</dim>
				</port>
			</output>
		</layer>
		<layer id="143" name="265" type="Reshape" version="opset1">
			<data special_zero="true"/>
			<rt_info>
				<attribute name="fused_names" version="0" value="265, Transpose_1626"/>
			</rt_info>
			<input>
				<port id="0" precision="FP32">
					<dim>1</dim>
					<dim>20</dim>
					<dim>175</dim>
					<dim>512</dim>
				</port>
				<port id="1" precision="I64">
					<dim>3</dim>
				</port>
			</input>
			<output>
				<port id="2" precision="FP32" names="265">
					<dim>20</dim>
					<dim>175</dim>
					<dim>512</dim>
				</port>
			</output>
		</layer>
		<layer id="144" name="266" type="Const" version="opset1">
			<data element_type="f32" shape="2, 1, 256" offset="5623872" size="2048"/>
			<output>
				<port id="0" precision="FP32" names="266">
					<dim>2</dim>
					<dim>1</dim>
					<dim>256</dim>
				</port>
			</output>
		</layer>
		<layer id="145" name="model.V_h_0" type="Const" version="opset1">
			<data element_type="f32" shape="2, 256" offset="5623872" size="2048"/>
			<rt_info>
				<attribute name="fused_names" version="0" value="model.V_h_0"/>
			</rt_info>
			<output>
				<port id="0" precision="FP32" names="model.V_h_0">
					<dim>2</dim>
					<dim>256</dim>
				</port>
			</output>
		</layer>
		<layer id="146" name="267" type="ShapeOf" version="opset3">
			<data output_type="i64"/>
			<rt_info>
				<attribute name="fused_names" version="0" value="267, 271, 280, 284"/>
			</rt_info>
			<input>
				<port id="0" precision="FP32">
					<dim>2</dim>
					<dim>256</dim>
				</port>
			</input>
			<output>
				<port id="1" precision="I64" names="267,271,280,284">
					<dim>2</dim>
				</port>
			</output>
		</layer>
		<layer id="147" name="Constant_6879" type="Const" version="opset1">
			<data element_type="i64" shape="1" offset="5623840" size="8"/>
			<rt_info>
				<attribute name="fused_names" version="0" value="268, 269, 274, Constant_887, Constant_894"/>
			</rt_info>
			<output>
				<port id="0" precision="I64">
					<dim>1</dim>
				</port>
			</output>
		</layer>
		<layer id="148" name="Constant_887" type="Const" version="opset1">
			<data element_type="i64" shape="" offset="5623840" size="8"/>
			<rt_info>
				<attribute name="fused_names" version="0" value="Constant_887"/>
			</rt_info>
			<output>
				<port id="0" precision="I64"/>
			</output>
		</layer>
		<layer id="149" name="269" type="Gather" version="opset8">
			<data batch_dims="0"/>
			<rt_info>
				<attribute name="fused_names" version="0" value="268, 269, 274, Constant_887, Constant_894"/>
			</rt_info>
			<input>
				<port id="0" precision="I64">
					<dim>2</dim>
				</port>
				<port id="1" precision="I64">
					<dim>1</dim>
				</port>
				<port id="2" precision="I64"/>
			</input>
			<output>
				<port id="3" precision="I64" names="274">
					<dim>1</dim>
				</port>
			</output>
		</layer>
		<layer id="150" name="270" type="Multiply" version="opset1">
			<data auto_broadcast="numpy"/>
			<rt_info>
				<attribute name="fused_names" version="0" value="270"/>
			</rt_info>
			<input>
				<port id="0" precision="I64"/>
				<port id="1" precision="I64"/>
			</input>
			<output>
				<port id="2" precision="I64" names="270"/>
			</output>
		</layer>
		<layer id="151" name="Constant_896" type="Const" version="opset1">
			<data element_type="i64" shape="1" offset="5623840" size="8"/>
			<rt_info>
				<attribute name="fused_names" version="0" value="Constant_896"/>
			</rt_info>
			<output>
				<port id="0" precision="I64">
					<dim>1</dim>
				</port>
			</output>
		</layer>
		<layer id="152" name="275" type="Unsqueeze" version="opset1">
			<rt_info>
				<attribute name="fused_names" version="0" value="275, Constant_896"/>
			</rt_info>
			<input>
				<port id="0" precision="I64"/>
				<port id="1" precision="I64">
					<dim>1</dim>
				</port>
			</input>
			<output>
				<port id="2" precision="I64" names="275">
					<dim>1</dim>
				</port>
			</output>
		</layer>
		<layer id="153" name="Constant_6888" type="Const" version="opset1">
			<data element_type="i64" shape="1" offset="5623848" size="8"/>
			<rt_info>
				<attribute name="fused_names" version="0" value="272, 273, 276, Constant_892, Constant_898"/>
			</rt_info>
			<output>
				<port id="0" precision="I64">
					<dim>1</dim>
				</port>
			</output>
		</layer>
		<layer id="154" name="Constant_892" type="Const" version="opset1">
			<data element_type="i64" shape="" offset="5623840" size="8"/>
			<rt_info>
				<attribute name="fused_names" version="0" value="Constant_892"/>
			</rt_info>
			<output>
				<port id="0" precision="I64"/>
			</output>
		</layer>
		<layer id="155" name="273" type="Gather" version="opset8">
			<data batch_dims="0"/>
			<rt_info>
				<attribute name="fused_names" version="0" value="272, 273, 276, Constant_892, Constant_898"/>
			</rt_info>
			<input>
				<port id="0" precision="I64">
					<dim>2</dim>
				</port>
				<port id="1" precision="I64">
					<dim>1</dim>
				</port>
				<port id="2" precision="I64"/>
			</input>
			<output>
				<port id="3" precision="I64" names="276">
					<dim>1</dim>
				</port>
			</output>
		</layer>
		<layer id="156" name="277" type="Concat" version="opset1">
			<data axis="0"/>
			<rt_info>
				<attribute name="fused_names" version="0" value="277"/>
			</rt_info>
			<input>
				<port id="0" precision="I64">
					<dim>1</dim>
				</port>
				<port id="1" precision="I64">
					<dim>1</dim>
				</port>
				<port id="2" precision="I64">
					<dim>1</dim>
				</port>
			</input>
			<output>
				<port id="3" precision="I64" names="277">
					<dim>3</dim>
				</port>
			</output>
		</layer>
		<layer id="157" name="278" type="Broadcast" version="opset3">
			<data mode="bidirectional"/>
			<rt_info>
				<attribute name="fused_names" version="0" value="266, 278"/>
			</rt_info>
			<input>
				<port id="0" precision="FP32">
					<dim>2</dim>
					<dim>1</dim>
					<dim>256</dim>
				</port>
				<port id="1" precision="I64">
					<dim>3</dim>
				</port>
			</input>
			<output>
				<port id="2" precision="FP32" names="278">
					<dim>2</dim>
					<dim>20</dim>
					<dim>256</dim>
				</port>
			</output>
		</layer>
		<layer id="158" name="Constant_1665" type="Const" version="opset1">
			<data element_type="i64" shape="3" offset="5625920" size="24"/>
			<rt_info>
				<attribute name="fused_names" version="0" value="Constant_1665"/>
			</rt_info>
			<output>
				<port id="0" precision="I64">
					<dim>3</dim>
				</port>
			</output>
		</layer>
		<layer id="159" name="Transpose_1666" type="Transpose" version="opset1">
			<rt_info>
				<attribute name="fused_names" version="0" value="Transpose_1666"/>
			</rt_info>
			<input>
				<port id="0" precision="FP32">
					<dim>2</dim>
					<dim>20</dim>
					<dim>256</dim>
				</port>
				<port id="1" precision="I64">
					<dim>3</dim>
				</port>
			</input>
			<output>
				<port id="2" precision="FP32">
					<dim>20</dim>
					<dim>2</dim>
					<dim>256</dim>
				</port>
			</output>
		</layer>
		<layer id="160" name="279" type="Const" version="opset1">
			<data element_type="f32" shape="2, 1, 256" offset="5625944" size="2048"/>
			<output>
				<port id="0" precision="FP32" names="279">
					<dim>2</dim>
					<dim>1</dim>
					<dim>256</dim>
				</port>
			</output>
		</layer>
		<layer id="161" name="Constant_6897" type="Const" version="opset1">
			<data element_type="i64" shape="1" offset="5623840" size="8"/>
			<rt_info>
				<attribute name="fused_names" version="0" value="281, 282, 287, Constant_980, Constant_987"/>
			</rt_info>
			<output>
				<port id="0" precision="I64">
					<dim>1</dim>
				</port>
			</output>
		</layer>
		<layer id="162" name="Constant_980" type="Const" version="opset1">
			<data element_type="i64" shape="" offset="5623840" size="8"/>
			<rt_info>
				<attribute name="fused_names" version="0" value="Constant_980"/>
			</rt_info>
			<output>
				<port id="0" precision="I64"/>
			</output>
		</layer>
		<layer id="163" name="282" type="Gather" version="opset8">
			<data batch_dims="0"/>
			<rt_info>
				<attribute name="fused_names" version="0" value="281, 282, 287, Constant_980, Constant_987"/>
			</rt_info>
			<input>
				<port id="0" precision="I64">
					<dim>2</dim>
				</port>
				<port id="1" precision="I64">
					<dim>1</dim>
				</port>
				<port id="2" precision="I64"/>
			</input>
			<output>
				<port id="3" precision="I64" names="287">
					<dim>1</dim>
				</port>
			</output>
		</layer>
		<layer id="164" name="283" type="Multiply" version="opset1">
			<data auto_broadcast="numpy"/>
			<rt_info>
				<attribute name="fused_names" version="0" value="283"/>
			</rt_info>
			<input>
				<port id="0" precision="I64"/>
				<port id="1" precision="I64"/>
			</input>
			<output>
				<port id="2" precision="I64" names="283"/>
			</output>
		</layer>
		<layer id="165" name="Constant_989" type="Const" version="opset1">
			<data element_type="i64" shape="1" offset="5623840" size="8"/>
			<rt_info>
				<attribute name="fused_names" version="0" value="Constant_989"/>
			</rt_info>
			<output>
				<port id="0" precision="I64">
					<dim>1</dim>
				</port>
			</output>
		</layer>
		<layer id="166" name="288" type="Unsqueeze" version="opset1">
			<rt_info>
				<attribute name="fused_names" version="0" value="288, Constant_989"/>
			</rt_info>
			<input>
				<port id="0" precision="I64"/>
				<port id="1" precision="I64">
					<dim>1</dim>
				</port>
			</input>
			<output>
				<port id="2" precision="I64" names="288">
					<dim>1</dim>
				</port>
			</output>
		</layer>
		<layer id="167" name="Constant_6906" type="Const" version="opset1">
			<data element_type="i64" shape="1" offset="5623848" size="8"/>
			<rt_info>
				<attribute name="fused_names" version="0" value="285, 286, 289, Constant_985, Constant_991"/>
			</rt_info>
			<output>
				<port id="0" precision="I64">
					<dim>1</dim>
				</port>
			</output>
		</layer>
		<layer id="168" name="Constant_985" type="Const" version="opset1">
			<data element_type="i64" shape="" offset="5623840" size="8"/>
			<rt_info>
				<attribute name="fused_names" version="0" value="Constant_985"/>
			</rt_info>
			<output>
				<port id="0" precision="I64"/>
			</output>
		</layer>
		<layer id="169" name="286" type="Gather" version="opset8">
			<data batch_dims="0"/>
			<rt_info>
				<attribute name="fused_names" version="0" value="285, 286, 289, Constant_985, Constant_991"/>
			</rt_info>
			<input>
				<port id="0" precision="I64">
					<dim>2</dim>
				</port>
				<port id="1" precision="I64">
					<dim>1</dim>
				</port>
				<port id="2" precision="I64"/>
			</input>
			<output>
				<port id="3" precision="I64" names="289">
					<dim>1</dim>
				</port>
			</output>
		</layer>
		<layer id="170" name="290" type="Concat" version="opset1">
			<data axis="0"/>
			<rt_info>
				<attribute name="fused_names" version="0" value="290"/>
			</rt_info>
			<input>
				<port id="0" precision="I64">
					<dim>1</dim>
				</port>
				<port id="1" precision="I64">
					<dim>1</dim>
				</port>
				<port id="2" precision="I64">
					<dim>1</dim>
				</port>
			</input>
			<output>
				<port id="3" precision="I64" names="290">
					<dim>3</dim>
				</port>
			</output>
		</layer>
		<layer id="171" name="291" type="Broadcast" version="opset3">
			<data mode="bidirectional"/>
			<rt_info>
				<attribute name="fused_names" version="0" value="279, 291"/>
			</rt_info>
			<input>
				<port id="0" precision="FP32">
					<dim>2</dim>
					<dim>1</dim>
					<dim>256</dim>
				</port>
				<port id="1" precision="I64">
					<dim>3</dim>
				</port>
			</input>
			<output>
				<port id="2" precision="FP32" names="291">
					<dim>2</dim>
					<dim>20</dim>
					<dim>256</dim>
				</port>
			</output>
		</layer>
		<layer id="172" name="Constant_1667" type="Const" version="opset1">
			<data element_type="i64" shape="3" offset="5625920" size="24"/>
			<rt_info>
				<attribute name="fused_names" version="0" value="Constant_1667"/>
			</rt_info>
			<output>
				<port id="0" precision="I64">
					<dim>3</dim>
				</port>
			</output>
		</layer>
		<layer id="173" name="Transpose_1668" type="Transpose" version="opset1">
			<rt_info>
				<attribute name="fused_names" version="0" value="Transpose_1668"/>
			</rt_info>
			<input>
				<port id="0" precision="FP32">
					<dim>2</dim>
					<dim>20</dim>
					<dim>256</dim>
				</port>
				<port id="1" precision="I64">
					<dim>3</dim>
				</port>
			</input>
			<output>
				<port id="2" precision="FP32">
					<dim>20</dim>
					<dim>2</dim>
					<dim>256</dim>
				</port>
			</output>
		</layer>
		<layer id="174" name="ShapeOf_1633" type="ShapeOf" version="opset3">
			<data output_type="i64"/>
			<rt_info>
				<attribute name="fused_names" version="0" value="ShapeOf_1633"/>
			</rt_info>
			<input>
				<port id="0" precision="FP32">
					<dim>20</dim>
					<dim>175</dim>
					<dim>512</dim>
				</port>
			</input>
			<output>
				<port id="1" precision="I64">
					<dim>3</dim>
				</port>
			</output>
		</layer>
		<layer id="175" name="Constant_1637" type="Const" version="opset1">
			<data element_type="i32" shape="1" offset="5627992" size="4"/>
			<rt_info>
				<attribute name="fused_names" version="0" value="Constant_1637"/>
			</rt_info>
			<output>
				<port id="0" precision="I32">
					<dim>1</dim>
				</port>
			</output>
		</layer>
		<layer id="176" name="Constant_1634" type="Const" version="opset1">
			<data element_type="i32" shape="1" offset="5627996" size="4"/>
			<rt_info>
				<attribute name="fused_names" version="0" value="Constant_1634"/>
			</rt_info>
			<output>
				<port id="0" precision="I32">
					<dim>1</dim>
				</port>
			</output>
		</layer>
		<layer id="177" name="Gather_1638" type="Gather" version="opset8">
			<data batch_dims="0"/>
			<rt_info>
				<attribute name="fused_names" version="0" value="Constant_1634, Gather_1638"/>
			</rt_info>
			<input>
				<port id="0" precision="I64">
					<dim>3</dim>
				</port>
				<port id="1" precision="I32">
					<dim>1</dim>
				</port>
				<port id="2" precision="I32">
					<dim>1</dim>
				</port>
			</input>
			<output>
				<port id="3" precision="I64">
					<dim>1</dim>
				</port>
			</output>
		</layer>
		<layer id="178" name="Constant_1635" type="Const" version="opset1">
			<data element_type="i32" shape="1" offset="5627996" size="4"/>
			<rt_info>
				<attribute name="fused_names" version="0" value="Constant_1635"/>
			</rt_info>
			<output>
				<port id="0" precision="I32">
					<dim>1</dim>
				</port>
			</output>
		</layer>
		<layer id="179" name="Gather_1636" type="Gather" version="opset8">
			<data batch_dims="0"/>
			<rt_info>
				<attribute name="fused_names" version="0" value="Constant_1634, Constant_1635, Gather_1636"/>
			</rt_info>
			<input>
				<port id="0" precision="I64">
					<dim>3</dim>
				</port>
				<port id="1" precision="I32">
					<dim>1</dim>
				</port>
				<port id="2" precision="I32">
					<dim>1</dim>
				</port>
			</input>
			<output>
				<port id="3" precision="I64">
					<dim>1</dim>
				</port>
			</output>
		</layer>
		<layer id="180" name="Broadcast_1650" type="Broadcast" version="opset3">
			<data mode="numpy"/>
			<rt_info>
				<attribute name="fused_names" version="0" value="Broadcast_1650"/>
			</rt_info>
			<input>
				<port id="0" precision="I64">
					<dim>1</dim>
				</port>
				<port id="1" precision="I64">
					<dim>1</dim>
				</port>
			</input>
			<output>
				<port id="2" precision="I64">
					<dim>20</dim>
				</port>
			</output>
		</layer>
		<layer id="181" name="Concat_1629" type="Const" version="opset1">
			<data element_type="f32" shape="2, 1024, 512" offset="5628000" size="4194304"/>
			<output>
				<port id="0" precision="FP32">
					<dim>2</dim>
					<dim>1024</dim>
					<dim>512</dim>
				</port>
			</output>
		</layer>
		<layer id="182" name="Concat_1632" type="Const" version="opset1">
			<data element_type="f32" shape="2, 1024, 256" offset="9822304" size="2097152"/>
			<output>
				<port id="0" precision="FP32">
					<dim>2</dim>
					<dim>1024</dim>
					<dim>256</dim>
				</port>
			</output>
		</layer>
		<layer id="183" name="Concat_1649" type="Const" version="opset1">
			<data element_type="f32" shape="2, 1024" offset="11919456" size="8192"/>
			<output>
				<port id="0" precision="FP32">
					<dim>2</dim>
					<dim>1024</dim>
				</port>
			</output>
		</layer>
		<layer id="184" name="LSTMSequence_1709" type="LSTMSequence" version="opset5">
			<data direction="bidirectional" hidden_size="256" activations="sigmoid, tanh, tanh" activations_alpha="" activations_beta="" clip="0"/>
			<rt_info>
				<attribute name="fused_names" version="0" value="297, 301, 305, 306, 310, 314, 318, 319, 323, 327, 331, 332, 336, 340, 344, 345, 346, 347, 348, 349, 353, 357, 361, 362, 366, 370, 374, 375, 379, 383, 387, 388, 392, 396, 400, 401, 402, 403, 404, 405, 406, 407, 408, Add_1646, Broadcast_1076, Broadcast_1098, Broadcast_1120, Broadcast_1143, Broadcast_1165, Broadcast_1187, Broadcast_1210, Broadcast_1232, Broadcast_1254, Broadcast_1277, Broadcast_1299, Broadcast_1321, Broadcast_1351, Broadcast_1373, Broadcast_1395, Broadcast_1418, Broadcast_1440, Broadcast_1462, Broadcast_1485, Broadcast_1507, Broadcast_1529, Broadcast_1552, Broadcast_1574, Broadcast_1596, Concat_1629, Concat_1632, Concat_1649, LSTMSequence_1709, Split_1628, Split_1631, Split_1645, Split_1648"/>
			</rt_info>
			<input>
				<port id="0" precision="FP32">
					<dim>20</dim>
					<dim>175</dim>
					<dim>512</dim>
				</port>
				<port id="1" precision="FP32">
					<dim>20</dim>
					<dim>2</dim>
					<dim>256</dim>
				</port>
				<port id="2" precision="FP32">
					<dim>20</dim>
					<dim>2</dim>
					<dim>256</dim>
				</port>
				<port id="3" precision="I64">
					<dim>20</dim>
				</port>
				<port id="4" precision="FP32">
					<dim>2</dim>
					<dim>1024</dim>
					<dim>512</dim>
				</port>
				<port id="5" precision="FP32">
					<dim>2</dim>
					<dim>1024</dim>
					<dim>256</dim>
				</port>
				<port id="6" precision="FP32">
					<dim>2</dim>
					<dim>1024</dim>
				</port>
			</input>
			<output>
				<port id="7" precision="FP32">
					<dim>20</dim>
					<dim>2</dim>
					<dim>175</dim>
					<dim>256</dim>
				</port>
				<port id="8" precision="FP32">
					<dim>20</dim>
					<dim>2</dim>
					<dim>256</dim>
				</port>
				<port id="9" precision="FP32">
					<dim>20</dim>
					<dim>2</dim>
					<dim>256</dim>
				</port>
			</output>
		</layer>
		<layer id="185" name="Constant_1712" type="Const" version="opset1">
			<data element_type="i64" shape="3" offset="5625920" size="24"/>
			<rt_info>
				<attribute name="fused_names" version="0" value="Constant_1712"/>
			</rt_info>
			<output>
				<port id="0" precision="I64">
					<dim>3</dim>
				</port>
			</output>
		</layer>
		<layer id="186" name="410" type="Transpose" version="opset1">
			<rt_info>
				<attribute name="fused_names" version="0" value="410"/>
			</rt_info>
			<input>
				<port id="0" precision="FP32">
					<dim>20</dim>
					<dim>2</dim>
					<dim>256</dim>
				</port>
				<port id="1" precision="I64">
					<dim>3</dim>
				</port>
			</input>
			<output>
				<port id="2" precision="FP32" names="410">
					<dim>2</dim>
					<dim>20</dim>
					<dim>256</dim>
				</port>
			</output>
		</layer>
		<layer id="187" name="425" type="Const" version="opset1">
			<data element_type="i64" shape="1" offset="11927648" size="8"/>
			<output>
				<port id="0" precision="I64" names="425">
					<dim>1</dim>
				</port>
			</output>
		</layer>
		<layer id="188" name="Constant_7013" type="Const" version="opset1">
			<data element_type="i64" shape="2" offset="11927656" size="16"/>
			<rt_info>
				<attribute name="fused_names" version="0" value="425, 428, 429"/>
			</rt_info>
			<output>
				<port id="0" precision="I64">
					<dim>2</dim>
				</port>
			</output>
		</layer>
		<layer id="189" name="Constant_7014" type="Const" version="opset1">
			<data element_type="i64" shape="" offset="5623840" size="8"/>
			<output>
				<port id="0" precision="I64"/>
			</output>
		</layer>
		<layer id="190" name="Gather_7015" type="Gather" version="opset8">
			<data batch_dims="0"/>
			<rt_info>
				<attribute name="fused_names" version="0" value="425, 428, 429"/>
			</rt_info>
			<input>
				<port id="0" precision="I64">
					<dim>4</dim>
				</port>
				<port id="1" precision="I64">
					<dim>2</dim>
				</port>
				<port id="2" precision="I64"/>
			</input>
			<output>
				<port id="3" precision="I64">
					<dim>2</dim>
				</port>
			</output>
		</layer>
		<layer id="191" name="428" type="Const" version="opset1">
			<data element_type="i64" shape="1" offset="11927672" size="8"/>
			<output>
				<port id="0" precision="I64" names="428">
					<dim>1</dim>
				</port>
			</output>
		</layer>
		<layer id="192" name="429" type="Concat" version="opset1">
			<data axis="0"/>
			<rt_info>
				<attribute name="fused_names" version="0" value="425, 428, 429"/>
			</rt_info>
			<input>
				<port id="0" precision="I64">
					<dim>1</dim>
				</port>
				<port id="1" precision="I64">
					<dim>2</dim>
				</port>
				<port id="2" precision="I64">
					<dim>1</dim>
				</port>
			</input>
			<output>
				<port id="3" precision="I64" names="429">
					<dim>4</dim>
				</port>
			</output>
		</layer>
		<layer id="193" name="430" type="Reshape" version="opset1">
			<data special_zero="true"/>
			<rt_info>
				<attribute name="fused_names" version="0" value="430"/>
			</rt_info>
			<input>
				<port id="0" precision="FP32">
					<dim>2</dim>
					<dim>20</dim>
					<dim>256</dim>
				</port>
				<port id="1" precision="I64">
					<dim>4</dim>
				</port>
			</input>
			<output>
				<port id="2" precision="FP32" names="430">
					<dim>2</dim>
					<dim>1</dim>
					<dim>20</dim>
					<dim>256</dim>
				</port>
			</output>
		</layer>
		<layer id="194" name="Constant_1948" type="Const" version="opset1">
			<data element_type="i64" shape="4" offset="11927680" size="32"/>
			<rt_info>
				<attribute name="fused_names" version="0" value="Constant_1948"/>
			</rt_info>
			<output>
				<port id="0" precision="I64">
					<dim>4</dim>
				</port>
			</output>
		</layer>
		<layer id="195" name="439" type="Transpose" version="opset1">
			<rt_info>
				<attribute name="fused_names" version="0" value="439"/>
			</rt_info>
			<input>
				<port id="0" precision="FP32">
					<dim>2</dim>
					<dim>1</dim>
					<dim>20</dim>
					<dim>256</dim>
				</port>
				<port id="1" precision="I64">
					<dim>4</dim>
				</port>
			</input>
			<output>
				<port id="2" precision="FP32" names="439">
					<dim>1</dim>
					<dim>20</dim>
					<dim>2</dim>
					<dim>256</dim>
				</port>
			</output>
		</layer>
		<layer id="196" name="450" type="Const" version="opset1">
			<data element_type="i64" shape="3" offset="11927712" size="24"/>
			<rt_info>
				<attribute name="fused_names" version="0" value="449, 450"/>
			</rt_info>
			<output>
				<port id="0" precision="I64">
					<dim>3</dim>
				</port>
			</output>
		</layer>
		<layer id="197" name="451" type="Reshape" version="opset1">
			<data special_zero="true"/>
			<rt_info>
				<attribute name="fused_names" version="0" value="451"/>
			</rt_info>
			<input>
				<port id="0" precision="FP32">
					<dim>1</dim>
					<dim>20</dim>
					<dim>2</dim>
					<dim>256</dim>
				</port>
				<port id="1" precision="I64">
					<dim>3</dim>
				</port>
			</input>
			<output>
				<port id="2" precision="FP32" names="451">
					<dim>1</dim>
					<dim>20</dim>
					<dim>512</dim>
				</port>
			</output>
		</layer>
		<layer id="198" name="Constant_2017" type="Const" version="opset1">
			<data element_type="i64" shape="1" offset="5623848" size="8"/>
			<rt_info>
				<attribute name="fused_names" version="0" value="Constant_2017"/>
			</rt_info>
			<output>
				<port id="0" precision="I64">
					<dim>1</dim>
				</port>
			</output>
		</layer>
		<layer id="199" name="hidden" type="ReduceMean" version="opset1">
			<data keep_dims="false"/>
			<rt_info>
				<attribute name="fused_names" version="0" value="hidden"/>
			</rt_info>
			<input>
				<port id="0" precision="FP32">
					<dim>1</dim>
					<dim>20</dim>
					<dim>512</dim>
				</port>
				<port id="1" precision="I64">
					<dim>1</dim>
				</port>
			</input>
			<output>
				<port id="2" precision="FP32" names="hidden">
					<dim>1</dim>
					<dim>512</dim>
				</port>
			</output>
		</layer>
		<layer id="200" name="Constant_8998" type="Const" version="opset1">
			<data element_type="i64" shape="4" offset="11927736" size="32"/>
			<output>
				<port id="0" precision="I64">
					<dim>4</dim>
				</port>
			</output>
		</layer>
		<layer id="201" name="412" type="Transpose" version="opset1">
			<rt_info>
				<attribute name="fused_names" version="0" value="409, 412"/>
			</rt_info>
			<input>
				<port id="0" precision="FP32">
					<dim>20</dim>
					<dim>2</dim>
					<dim>175</dim>
					<dim>256</dim>
				</port>
				<port id="1" precision="I64">
					<dim>4</dim>
				</port>
			</input>
			<output>
				<port id="2" precision="FP32" names="412">
					<dim>175</dim>
					<dim>20</dim>
					<dim>2</dim>
					<dim>256</dim>
				</port>
			</output>
		</layer>
		<layer id="202" name="413" type="Const" version="opset1">
			<data element_type="i64" shape="3" offset="11927768" size="24"/>
			<rt_info>
				<attribute name="fused_names" version="0" value="413"/>
			</rt_info>
			<output>
				<port id="0" precision="I64" names="413">
					<dim>3</dim>
				</port>
			</output>
		</layer>
		<layer id="203" name="414" type="Reshape" version="opset1">
			<data special_zero="true"/>
			<rt_info>
				<attribute name="fused_names" version="0" value="414"/>
			</rt_info>
			<input>
				<port id="0" precision="FP32">
					<dim>175</dim>
					<dim>20</dim>
					<dim>2</dim>
					<dim>256</dim>
				</port>
				<port id="1" precision="I64">
					<dim>3</dim>
				</port>
			</input>
			<output>
				<port id="2" precision="FP32" names="414">
					<dim>175</dim>
					<dim>20</dim>
					<dim>512</dim>
				</port>
			</output>
		</layer>
		<layer id="204" name="Constant_1725" type="Const" version="opset1">
			<data element_type="i64" shape="3" offset="5625920" size="24"/>
			<rt_info>
				<attribute name="fused_names" version="0" value="Constant_1725"/>
			</rt_info>
			<output>
				<port id="0" precision="I64">
					<dim>3</dim>
				</port>
			</output>
		</layer>
		<layer id="205" name="415" type="Transpose" version="opset1">
			<rt_info>
				<attribute name="fused_names" version="0" value="415"/>
			</rt_info>
			<input>
				<port id="0" precision="FP32">
					<dim>175</dim>
					<dim>20</dim>
					<dim>512</dim>
				</port>
				<port id="1" precision="I64">
					<dim>3</dim>
				</port>
			</input>
			<output>
				<port id="2" precision="FP32" names="415">
					<dim>20</dim>
					<dim>175</dim>
					<dim>512</dim>
				</port>
			</output>
		</layer>
		<layer id="206" name="Constant_7027" type="Const" version="opset1">
			<data element_type="i64" shape="3" offset="11927792" size="24"/>
			<rt_info>
				<attribute name="fused_names" version="0" value="420, 421"/>
			</rt_info>
			<output>
				<port id="0" precision="I64">
					<dim>3</dim>
				</port>
			</output>
		</layer>
		<layer id="207" name="Constant_7028" type="Const" version="opset1">
			<data element_type="i64" shape="" offset="5623840" size="8"/>
			<output>
				<port id="0" precision="I64"/>
			</output>
		</layer>
		<layer id="208" name="Gather_7029" type="Gather" version="opset8">
			<data batch_dims="0"/>
			<rt_info>
				<attribute name="fused_names" version="0" value="420, 421"/>
			</rt_info>
			<input>
				<port id="0" precision="I64">
					<dim>4</dim>
				</port>
				<port id="1" precision="I64">
					<dim>3</dim>
				</port>
				<port id="2" precision="I64"/>
			</input>
			<output>
				<port id="3" precision="I64">
					<dim>3</dim>
				</port>
			</output>
		</layer>
		<layer id="209" name="420" type="Const" version="opset1">
			<data element_type="i64" shape="1" offset="11927816" size="8"/>
			<output>
				<port id="0" precision="I64" names="420">
					<dim>1</dim>
				</port>
			</output>
		</layer>
		<layer id="210" name="421" type="Concat" version="opset1">
			<data axis="0"/>
			<rt_info>
				<attribute name="fused_names" version="0" value="420, 421"/>
			</rt_info>
			<input>
				<port id="0" precision="I64">
					<dim>3</dim>
				</port>
				<port id="1" precision="I64">
					<dim>1</dim>
				</port>
			</input>
			<output>
				<port id="2" precision="I64" names="421">
					<dim>4</dim>
				</port>
			</output>
		</layer>
		<layer id="211" name="row_enc_out" type="Reshape" version="opset1">
			<data special_zero="true"/>
			<rt_info>
				<attribute name="fused_names" version="0" value="row_enc_out"/>
			</rt_info>
			<input>
				<port id="0" precision="FP32">
					<dim>20</dim>
					<dim>175</dim>
					<dim>512</dim>
				</port>
				<port id="1" precision="I64">
					<dim>4</dim>
				</port>
			</input>
			<output>
				<port id="2" precision="FP32" names="row_enc_out">
					<dim>1</dim>
					<dim>20</dim>
					<dim>175</dim>
					<dim>512</dim>
				</port>
			</output>
		</layer>
		<layer id="212" name="Constant_2090" type="Const" version="opset1">
			<data element_type="i64" shape="2" offset="11927824" size="16"/>
			<rt_info>
				<attribute name="fused_names" version="0" value="Constant_2090"/>
			</rt_info>
			<output>
				<port id="0" precision="I64">
					<dim>2</dim>
				</port>
			</output>
		</layer>
		<layer id="213" name="467" type="ReduceMean" version="opset1">
			<data keep_dims="false"/>
			<rt_info>
				<attribute name="fused_names" version="0" value="467"/>
			</rt_info>
			<input>
				<port id="0" precision="FP32">
					<dim>1</dim>
					<dim>20</dim>
					<dim>175</dim>
					<dim>512</dim>
				</port>
				<port id="1" precision="I64">
					<dim>2</dim>
				</port>
			</input>
			<output>
				<port id="2" precision="FP32" names="467">
					<dim>1</dim>
					<dim>512</dim>
				</port>
			</output>
		</layer>
		<layer id="214" name="468" type="Concat" version="opset1">
			<data axis="1"/>
			<rt_info>
				<attribute name="fused_names" version="0" value="468"/>
			</rt_info>
			<input>
				<port id="0" precision="FP32">
					<dim>1</dim>
					<dim>512</dim>
				</port>
				<port id="1" precision="FP32">
					<dim>1</dim>
					<dim>512</dim>
				</port>
			</input>
			<output>
				<port id="2" precision="FP32" names="468">
					<dim>1</dim>
					<dim>1024</dim>
				</port>
			</output>
		</layer>
		<layer id="215" name="model.W_c.weight" type="Const" version="opset1">
			<data element_type="f32" shape="256, 1024" offset="11927840" size="1048576"/>
			<rt_info>
				<attribute name="fused_names" version="0" value="model.W_c.weight"/>
			</rt_info>
			<output>
				<port id="0" precision="FP32" names="model.W_c.weight">
					<dim>256</dim>
					<dim>1024</dim>
				</port>
			</output>
		</layer>
		<layer id="216" name="MatMul_2095" type="MatMul" version="opset1">
			<data transpose_a="false" transpose_b="true"/>
			<rt_info>
				<attribute name="fused_names" version="0" value="MatMul_2095"/>
			</rt_info>
			<input>
				<port id="0" precision="FP32">
					<dim>1</dim>
					<dim>1024</dim>
				</port>
				<port id="1" precision="FP32">
					<dim>256</dim>
					<dim>1024</dim>
				</port>
			</input>
			<output>
				<port id="2" precision="FP32">
					<dim>1</dim>
					<dim>256</dim>
				</port>
			</output>
		</layer>
		<layer id="217" name="Constant_12608" type="Const" version="opset1">
			<data element_type="f32" shape="1, 256" offset="12976416" size="1024"/>
			<output>
				<port id="0" precision="FP32">
					<dim>1</dim>
					<dim>256</dim>
				</port>
			</output>
		</layer>
		<layer id="218" name="469" type="Add" version="opset1">
			<data auto_broadcast="numpy"/>
			<rt_info>
				<attribute name="fused_names" version="0" value="469, Multiply_2096"/>
			</rt_info>
			<input>
				<port id="0" precision="FP32">
					<dim>1</dim>
					<dim>256</dim>
				</port>
				<port id="1" precision="FP32">
					<dim>1</dim>
					<dim>256</dim>
				</port>
			</input>
			<output>
				<port id="2" precision="FP32" names="469">
					<dim>1</dim>
					<dim>256</dim>
				</port>
			</output>
		</layer>
		<layer id="219" name="init_0" type="Tanh" version="opset1">
			<rt_info>
				<attribute name="fused_names" version="0" value="init_0"/>
			</rt_info>
			<input>
				<port id="0" precision="FP32">
					<dim>1</dim>
					<dim>256</dim>
				</port>
			</input>
			<output>
				<port id="1" precision="FP32" names="init_0">
					<dim>1</dim>
					<dim>256</dim>
				</port>
			</output>
		</layer>
		<layer id="221" name="Constant_1714" type="Const" version="opset1">
			<data element_type="i64" shape="3" offset="5625920" size="24"/>
			<rt_info>
				<attribute name="fused_names" version="0" value="Constant_1714"/>
			</rt_info>
			<output>
				<port id="0" precision="I64">
					<dim>3</dim>
				</port>
			</output>
		</layer>
		<layer id="222" name="411" type="Transpose" version="opset1">
			<rt_info>
				<attribute name="fused_names" version="0" value="411"/>
			</rt_info>
			<input>
				<port id="0" precision="FP32">
					<dim>20</dim>
					<dim>2</dim>
					<dim>256</dim>
				</port>
				<port id="1" precision="I64">
					<dim>3</dim>
				</port>
			</input>
			<output>
				<port id="2" precision="FP32" names="411">
					<dim>2</dim>
					<dim>20</dim>
					<dim>256</dim>
				</port>
			</output>
		</layer>
		<layer id="223" name="433" type="Const" version="opset1">
			<data element_type="i64" shape="1" offset="11927648" size="8"/>
			<output>
				<port id="0" precision="I64" names="433">
					<dim>1</dim>
				</port>
			</output>
		</layer>
		<layer id="224" name="Constant_7032" type="Const" version="opset1">
			<data element_type="i64" shape="2" offset="11927656" size="16"/>
			<rt_info>
				<attribute name="fused_names" version="0" value="433, 436, 437"/>
			</rt_info>
			<output>
				<port id="0" precision="I64">
					<dim>2</dim>
				</port>
			</output>
		</layer>
		<layer id="225" name="Constant_7033" type="Const" version="opset1">
			<data element_type="i64" shape="" offset="5623840" size="8"/>
			<output>
				<port id="0" precision="I64"/>
			</output>
		</layer>
		<layer id="226" name="Gather_7034" type="Gather" version="opset8">
			<data batch_dims="0"/>
			<rt_info>
				<attribute name="fused_names" version="0" value="433, 436, 437"/>
			</rt_info>
			<input>
				<port id="0" precision="I64">
					<dim>4</dim>
				</port>
				<port id="1" precision="I64">
					<dim>2</dim>
				</port>
				<port id="2" precision="I64"/>
			</input>
			<output>
				<port id="3" precision="I64">
					<dim>2</dim>
				</port>
			</output>
		</layer>
		<layer id="227" name="436" type="Const" version="opset1">
			<data element_type="i64" shape="1" offset="11927672" size="8"/>
			<output>
				<port id="0" precision="I64" names="436">
					<dim>1</dim>
				</port>
			</output>
		</layer>
		<layer id="228" name="437" type="Concat" version="opset1">
			<data axis="0"/>
			<rt_info>
				<attribute name="fused_names" version="0" value="433, 436, 437"/>
			</rt_info>
			<input>
				<port id="0" precision="I64">
					<dim>1</dim>
				</port>
				<port id="1" precision="I64">
					<dim>2</dim>
				</port>
				<port id="2" precision="I64">
					<dim>1</dim>
				</port>
			</input>
			<output>
				<port id="3" precision="I64" names="437">
					<dim>4</dim>
				</port>
			</output>
		</layer>
		<layer id="229" name="438" type="Reshape" version="opset1">
			<data special_zero="true"/>
			<rt_info>
				<attribute name="fused_names" version="0" value="438"/>
			</rt_info>
			<input>
				<port id="0" precision="FP32">
					<dim>2</dim>
					<dim>20</dim>
					<dim>256</dim>
				</port>
				<port id="1" precision="I64">
					<dim>4</dim>
				</port>
			</input>
			<output>
				<port id="2" precision="FP32" names="438">
					<dim>2</dim>
					<dim>1</dim>
					<dim>20</dim>
					<dim>256</dim>
				</port>
			</output>
		</layer>
		<layer id="230" name="Constant_2019" type="Const" version="opset1">
			<data element_type="i64" shape="4" offset="11927680" size="32"/>
			<rt_info>
				<attribute name="fused_names" version="0" value="Constant_2019"/>
			</rt_info>
			<output>
				<port id="0" precision="I64">
					<dim>4</dim>
				</port>
			</output>
		</layer>
		<layer id="231" name="453" type="Transpose" version="opset1">
			<rt_info>
				<attribute name="fused_names" version="0" value="453"/>
			</rt_info>
			<input>
				<port id="0" precision="FP32">
					<dim>2</dim>
					<dim>1</dim>
					<dim>20</dim>
					<dim>256</dim>
				</port>
				<port id="1" precision="I64">
					<dim>4</dim>
				</port>
			</input>
			<output>
				<port id="2" precision="FP32" names="453">
					<dim>1</dim>
					<dim>20</dim>
					<dim>2</dim>
					<dim>256</dim>
				</port>
			</output>
		</layer>
		<layer id="232" name="464" type="Const" version="opset1">
			<data element_type="i64" shape="3" offset="11927712" size="24"/>
			<rt_info>
				<attribute name="fused_names" version="0" value="463, 464"/>
			</rt_info>
			<output>
				<port id="0" precision="I64">
					<dim>3</dim>
				</port>
			</output>
		</layer>
		<layer id="233" name="465" type="Reshape" version="opset1">
			<data special_zero="true"/>
			<rt_info>
				<attribute name="fused_names" version="0" value="465"/>
			</rt_info>
			<input>
				<port id="0" precision="FP32">
					<dim>1</dim>
					<dim>20</dim>
					<dim>2</dim>
					<dim>256</dim>
				</port>
				<port id="1" precision="I64">
					<dim>3</dim>
				</port>
			</input>
			<output>
				<port id="2" precision="FP32" names="465">
					<dim>1</dim>
					<dim>20</dim>
					<dim>512</dim>
				</port>
			</output>
		</layer>
		<layer id="234" name="Constant_2088" type="Const" version="opset1">
			<data element_type="i64" shape="1" offset="5623848" size="8"/>
			<rt_info>
				<attribute name="fused_names" version="0" value="Constant_2088"/>
			</rt_info>
			<output>
				<port id="0" precision="I64">
					<dim>1</dim>
				</port>
			</output>
		</layer>
		<layer id="235" name="context" type="ReduceMean" version="opset1">
			<data keep_dims="false"/>
			<rt_info>
				<attribute name="fused_names" version="0" value="context"/>
			</rt_info>
			<input>
				<port id="0" precision="FP32">
					<dim>1</dim>
					<dim>20</dim>
					<dim>512</dim>
				</port>
				<port id="1" precision="I64">
					<dim>1</dim>
				</port>
			</input>
			<output>
				<port id="2" precision="FP32" names="context">
					<dim>1</dim>
					<dim>512</dim>
				</port>
			</output>
		</layer>
		<layer id="238" name="row_enc_out/sink_port_0" type="Result" version="opset1">
			<rt_info>
				<attribute name="fused_names" version="0" value="row_enc_out/sink_port_0"/>
			</rt_info>
			<input>
				<port id="0" precision="FP32">
					<dim>1</dim>
					<dim>20</dim>
					<dim>175</dim>
					<dim>512</dim>
				</port>
			</input>
		</layer>
		<layer id="237" name="hidden/sink_port_0" type="Result" version="opset1">
			<rt_info>
				<attribute name="fused_names" version="0" value="hidden/sink_port_0"/>
			</rt_info>
			<input>
				<port id="0" precision="FP32">
					<dim>1</dim>
					<dim>512</dim>
				</port>
			</input>
		</layer>
		<layer id="236" name="context/sink_port_0" type="Result" version="opset1">
			<rt_info>
				<attribute name="fused_names" version="0" value="context/sink_port_0"/>
			</rt_info>
			<input>
				<port id="0" precision="FP32">
					<dim>1</dim>
					<dim>512</dim>
				</port>
			</input>
		</layer>
		<layer id="220" name="init_0/sink_port_0" type="Result" version="opset1">
			<rt_info>
				<attribute name="fused_names" version="0" value="init_0/sink_port_0"/>
			</rt_info>
			<input>
				<port id="0" precision="FP32">
					<dim>1</dim>
					<dim>256</dim>
				</port>
			</input>
		</layer>
	</layers>
	<edges>
		<edge from-layer="0" from-port="0" to-layer="2" to-port="0"/>
		<edge from-layer="1" from-port="0" to-layer="2" to-port="1"/>
		<edge from-layer="2" from-port="2" to-layer="4" to-port="0"/>
		<edge from-layer="3" from-port="0" to-layer="4" to-port="1"/>
		<edge from-layer="4" from-port="2" to-layer="5" to-port="0"/>
		<edge from-layer="5" from-port="1" to-layer="6" to-port="0"/>
		<edge from-layer="6" from-port="1" to-layer="8" to-port="0"/>
		<edge from-layer="6" from-port="1" to-layer="22" to-port="0"/>
		<edge from-layer="7" from-port="0" to-layer="8" to-port="1"/>
		<edge from-layer="8" from-port="2" to-layer="10" to-port="0"/>
		<edge from-layer="9" from-port="0" to-layer="10" to-port="1"/>
		<edge from-layer="10" from-port="2" to-layer="11" to-port="0"/>
		<edge from-layer="11" from-port="1" to-layer="13" to-port="0"/>
		<edge from-layer="12" from-port="0" to-layer="13" to-port="1"/>
		<edge from-layer="13" from-port="2" to-layer="15" to-port="0"/>
		<edge from-layer="14" from-port="0" to-layer="15" to-port="1"/>
		<edge from-layer="15" from-port="2" to-layer="16" to-port="0"/>
		<edge from-layer="16" from-port="1" to-layer="18" to-port="0"/>
		<edge from-layer="17" from-port="0" to-layer="18" to-port="1"/>
		<edge from-layer="18" from-port="2" to-layer="20" to-port="0"/>
		<edge from-layer="19" from-port="0" to-layer="20" to-port="1"/>
		<edge from-layer="20" from-port="2" to-layer="25" to-port="0"/>
		<edge from-layer="21" from-port="0" to-layer="22" to-port="1"/>
		<edge from-layer="22" from-port="2" to-layer="24" to-port="0"/>
		<edge from-layer="23" from-port="0" to-layer="24" to-port="1"/>
		<edge from-layer="24" from-port="2" to-layer="25" to-port="1"/>
		<edge from-layer="25" from-port="2" to-layer="26" to-port="0"/>
		<edge from-layer="26" from-port="1" to-layer="28" to-port="0"/>
		<edge from-layer="26" from-port="1" to-layer="41" to-port="1"/>
		<edge from-layer="27" from-port="0" to-layer="28" to-port="1"/>
		<edge from-layer="28" from-port="2" to-layer="30" to-port="0"/>
		<edge from-layer="29" from-port="0" to-layer="30" to-port="1"/>
		<edge from-layer="30" from-port="2" to-layer="31" to-port="0"/>
		<edge from-layer="31" from-port="1" to-layer="33" to-port="0"/>
		<edge from-layer="32" from-port="0" to-layer="33" to-port="1"/>
		<edge from-layer="33" from-port="2" to-layer="35" to-port="0"/>
		<edge from-layer="34" from-port="0" to-layer="35" to-port="1"/>
		<edge from-layer="35" from-port="2" to-layer="36" to-port="0"/>
		<edge from-layer="36" from-port="1" to-layer="38" to-port="0"/>
		<edge from-layer="37" from-port="0" to-layer="38" to-port="1"/>
		<edge from-layer="38" from-port="2" to-layer="40" to-port="0"/>
		<edge from-layer="39" from-port="0" to-layer="40" to-port="1"/>
		<edge from-layer="40" from-port="2" to-layer="41" to-port="0"/>
		<edge from-layer="41" from-port="2" to-layer="42" to-port="0"/>
		<edge from-layer="42" from-port="1" to-layer="57" to-port="1"/>
		<edge from-layer="42" from-port="1" to-layer="44" to-port="0"/>
		<edge from-layer="43" from-port="0" to-layer="44" to-port="1"/>
		<edge from-layer="44" from-port="2" to-layer="46" to-port="0"/>
		<edge from-layer="45" from-port="0" to-layer="46" to-port="1"/>
		<edge from-layer="46" from-port="2" to-layer="47" to-port="0"/>
		<edge from-layer="47" from-port="1" to-layer="49" to-port="0"/>
		<edge from-layer="48" from-port="0" to-layer="49" to-port="1"/>
		<edge from-layer="49" from-port="2" to-layer="51" to-port="0"/>
		<edge from-layer="50" from-port="0" to-layer="51" to-port="1"/>
		<edge from-layer="51" from-port="2" to-layer="52" to-port="0"/>
		<edge from-layer="52" from-port="1" to-layer="54" to-port="0"/>
		<edge from-layer="53" from-port="0" to-layer="54" to-port="1"/>
		<edge from-layer="54" from-port="2" to-layer="56" to-port="0"/>
		<edge from-layer="55" from-port="0" to-layer="56" to-port="1"/>
		<edge from-layer="56" from-port="2" to-layer="57" to-port="0"/>
		<edge from-layer="57" from-port="2" to-layer="58" to-port="0"/>
		<edge from-layer="58" from-port="1" to-layer="60" to-port="0"/>
		<edge from-layer="58" from-port="1" to-layer="74" to-port="0"/>
		<edge from-layer="59" from-port="0" to-layer="60" to-port="1"/>
		<edge from-layer="60" from-port="2" to-layer="62" to-port="0"/>
		<edge from-layer="61" from-port="0" to-layer="62" to-port="1"/>
		<edge from-layer="62" from-port="2" to-layer="63" to-port="0"/>
		<edge from-layer="63" from-port="1" to-layer="65" to-port="0"/>
		<edge from-layer="64" from-port="0" to-layer="65" to-port="1"/>
		<edge from-layer="65" from-port="2" to-layer="67" to-port="0"/>
		<edge from-layer="66" from-port="0" to-layer="67" to-port="1"/>
		<edge from-layer="67" from-port="2" to-layer="68" to-port="0"/>
		<edge from-layer="68" from-port="1" to-layer="70" to-port="0"/>
		<edge from-layer="69" from-port="0" to-layer="70" to-port="1"/>
		<edge from-layer="70" from-port="2" to-layer="72" to-port="0"/>
		<edge from-layer="71" from-port="0" to-layer="72" to-port="1"/>
		<edge from-layer="72" from-port="2" to-layer="77" to-port="0"/>
		<edge from-layer="73" from-port="0" to-layer="74" to-port="1"/>
		<edge from-layer="74" from-port="2" to-layer="76" to-port="0"/>
		<edge from-layer="75" from-port="0" to-layer="76" to-port="1"/>
		<edge from-layer="76" from-port="2" to-layer="77" to-port="1"/>
		<edge from-layer="77" from-port="2" to-layer="78" to-port="0"/>
		<edge from-layer="78" from-port="1" to-layer="80" to-port="0"/>
		<edge from-layer="78" from-port="1" to-layer="93" to-port="1"/>
		<edge from-layer="79" from-port="0" to-layer="80" to-port="1"/>
		<edge from-layer="80" from-port="2" to-layer="82" to-port="0"/>
		<edge from-layer="81" from-port="0" to-layer="82" to-port="1"/>
		<edge from-layer="82" from-port="2" to-layer="83" to-port="0"/>
		<edge from-layer="83" from-port="1" to-layer="85" to-port="0"/>
		<edge from-layer="84" from-port="0" to-layer="85" to-port="1"/>
		<edge from-layer="85" from-port="2" to-layer="87" to-port="0"/>
		<edge from-layer="86" from-port="0" to-layer="87" to-port="1"/>
		<edge from-layer="87" from-port="2" to-layer="88" to-port="0"/>
		<edge from-layer="88" from-port="1" to-layer="90" to-port="0"/>
		<edge from-layer="89" from-port="0" to-layer="90" to-port="1"/>
		<edge from-layer="90" from-port="2" to-layer="92" to-port="0"/>
		<edge from-layer="91" from-port="0" to-layer="92" to-port="1"/>
		<edge from-layer="92" from-port="2" to-layer="93" to-port="0"/>
		<edge from-layer="93" from-port="2" to-layer="94" to-port="0"/>
		<edge from-layer="94" from-port="1" to-layer="96" to-port="0"/>
		<edge from-layer="94" from-port="1" to-layer="109" to-port="1"/>
		<edge from-layer="95" from-port="0" to-layer="96" to-port="1"/>
		<edge from-layer="96" from-port="2" to-layer="98" to-port="0"/>
		<edge from-layer="97" from-port="0" to-layer="98" to-port="1"/>
		<edge from-layer="98" from-port="2" to-layer="99" to-port="0"/>
		<edge from-layer="99" from-port="1" to-layer="101" to-port="0"/>
		<edge from-layer="100" from-port="0" to-layer="101" to-port="1"/>
		<edge from-layer="101" from-port="2" to-layer="103" to-port="0"/>
		<edge from-layer="102" from-port="0" to-layer="103" to-port="1"/>
		<edge from-layer="103" from-port="2" to-layer="104" to-port="0"/>
		<edge from-layer="104" from-port="1" to-layer="106" to-port="0"/>
		<edge from-layer="105" from-port="0" to-layer="106" to-port="1"/>
		<edge from-layer="106" from-port="2" to-layer="108" to-port="0"/>
		<edge from-layer="107" from-port="0" to-layer="108" to-port="1"/>
		<edge from-layer="108" from-port="2" to-layer="109" to-port="0"/>
		<edge from-layer="109" from-port="2" to-layer="110" to-port="0"/>
		<edge from-layer="110" from-port="1" to-layer="125" to-port="1"/>
		<edge from-layer="110" from-port="1" to-layer="112" to-port="0"/>
		<edge from-layer="111" from-port="0" to-layer="112" to-port="1"/>
		<edge from-layer="112" from-port="2" to-layer="114" to-port="0"/>
		<edge from-layer="113" from-port="0" to-layer="114" to-port="1"/>
		<edge from-layer="114" from-port="2" to-layer="115" to-port="0"/>
		<edge from-layer="115" from-port="1" to-layer="117" to-port="0"/>
		<edge from-layer="116" from-port="0" to-layer="117" to-port="1"/>
		<edge from-layer="117" from-port="2" to-layer="119" to-port="0"/>
		<edge from-layer="118" from-port="0" to-layer="119" to-port="1"/>
		<edge from-layer="119" from-port="2" to-layer="120" to-port="0"/>
		<edge from-layer="120" from-port="1" to-layer="122" to-port="0"/>
		<edge from-layer="121" from-port="0" to-layer="122" to-port="1"/>
		<edge from-layer="122" from-port="2" to-layer="124" to-port="0"/>
		<edge from-layer="123" from-port="0" to-layer="124" to-port="1"/>
		<edge from-layer="124" from-port="2" to-layer="125" to-port="0"/>
		<edge from-layer="125" from-port="2" to-layer="126" to-port="0"/>
		<edge from-layer="126" from-port="1" to-layer="128" to-port="0"/>
		<edge from-layer="127" from-port="0" to-layer="128" to-port="1"/>
		<edge from-layer="128" from-port="2" to-layer="129" to-port="0"/>
		<edge from-layer="128" from-port="2" to-layer="143" to-port="0"/>
		<edge from-layer="129" from-port="1" to-layer="135" to-port="0"/>
		<edge from-layer="129" from-port="1" to-layer="226" to-port="0"/>
		<edge from-layer="129" from-port="1" to-layer="208" to-port="0"/>
		<edge from-layer="129" from-port="1" to-layer="190" to-port="0"/>
		<edge from-layer="129" from-port="1" to-layer="141" to-port="0"/>
		<edge from-layer="129" from-port="1" to-layer="132" to-port="0"/>
		<edge from-layer="130" from-port="0" to-layer="132" to-port="1"/>
		<edge from-layer="131" from-port="0" to-layer="132" to-port="2"/>
		<edge from-layer="132" from-port="3" to-layer="136" to-port="0"/>
		<edge from-layer="132" from-port="3" to-layer="164" to-port="0"/>
		<edge from-layer="132" from-port="3" to-layer="150" to-port="0"/>
		<edge from-layer="133" from-port="0" to-layer="135" to-port="1"/>
		<edge from-layer="134" from-port="0" to-layer="135" to-port="2"/>
		<edge from-layer="135" from-port="3" to-layer="136" to-port="1"/>
		<edge from-layer="135" from-port="3" to-layer="164" to-port="1"/>
		<edge from-layer="135" from-port="3" to-layer="150" to-port="1"/>
		<edge from-layer="136" from-port="2" to-layer="138" to-port="0"/>
		<edge from-layer="137" from-port="0" to-layer="138" to-port="1"/>
		<edge from-layer="138" from-port="2" to-layer="142" to-port="0"/>
		<edge from-layer="139" from-port="0" to-layer="141" to-port="1"/>
		<edge from-layer="140" from-port="0" to-layer="141" to-port="2"/>
		<edge from-layer="141" from-port="3" to-layer="142" to-port="1"/>
		<edge from-layer="142" from-port="2" to-layer="143" to-port="1"/>
		<edge from-layer="143" from-port="2" to-layer="184" to-port="0"/>
		<edge from-layer="143" from-port="2" to-layer="174" to-port="0"/>
		<edge from-layer="144" from-port="0" to-layer="157" to-port="0"/>
		<edge from-layer="145" from-port="0" to-layer="146" to-port="0"/>
		<edge from-layer="146" from-port="1" to-layer="149" to-port="0"/>
		<edge from-layer="146" from-port="1" to-layer="169" to-port="0"/>
		<edge from-layer="146" from-port="1" to-layer="163" to-port="0"/>
		<edge from-layer="146" from-port="1" to-layer="155" to-port="0"/>
		<edge from-layer="147" from-port="0" to-layer="149" to-port="1"/>
		<edge from-layer="148" from-port="0" to-layer="149" to-port="2"/>
		<edge from-layer="149" from-port="3" to-layer="156" to-port="0"/>
		<edge from-layer="150" from-port="2" to-layer="152" to-port="0"/>
		<edge from-layer="151" from-port="0" to-layer="152" to-port="1"/>
		<edge from-layer="152" from-port="2" to-layer="156" to-port="1"/>
		<edge from-layer="153" from-port="0" to-layer="155" to-port="1"/>
		<edge from-layer="154" from-port="0" to-layer="155" to-port="2"/>
		<edge from-layer="155" from-port="3" to-layer="156" to-port="2"/>
		<edge from-layer="156" from-port="3" to-layer="157" to-port="1"/>
		<edge from-layer="157" from-port="2" to-layer="159" to-port="0"/>
		<edge from-layer="158" from-port="0" to-layer="159" to-port="1"/>
		<edge from-layer="159" from-port="2" to-layer="184" to-port="1"/>
		<edge from-layer="160" from-port="0" to-layer="171" to-port="0"/>
		<edge from-layer="161" from-port="0" to-layer="163" to-port="1"/>
		<edge from-layer="162" from-port="0" to-layer="163" to-port="2"/>
		<edge from-layer="163" from-port="3" to-layer="170" to-port="0"/>
		<edge from-layer="164" from-port="2" to-layer="166" to-port="0"/>
		<edge from-layer="165" from-port="0" to-layer="166" to-port="1"/>
		<edge from-layer="166" from-port="2" to-layer="170" to-port="1"/>
		<edge from-layer="167" from-port="0" to-layer="169" to-port="1"/>
		<edge from-layer="168" from-port="0" to-layer="169" to-port="2"/>
		<edge from-layer="169" from-port="3" to-layer="170" to-port="2"/>
		<edge from-layer="170" from-port="3" to-layer="171" to-port="1"/>
		<edge from-layer="171" from-port="2" to-layer="173" to-port="0"/>
		<edge from-layer="172" from-port="0" to-layer="173" to-port="1"/>
		<edge from-layer="173" from-port="2" to-layer="184" to-port="2"/>
		<edge from-layer="174" from-port="1" to-layer="177" to-port="0"/>
		<edge from-layer="174" from-port="1" to-layer="179" to-port="0"/>
		<edge from-layer="175" from-port="0" to-layer="177" to-port="1"/>
		<edge from-layer="176" from-port="0" to-layer="179" to-port="2"/>
		<edge from-layer="176" from-port="0" to-layer="177" to-port="2"/>
		<edge from-layer="177" from-port="3" to-layer="180" to-port="0"/>
		<edge from-layer="178" from-port="0" to-layer="179" to-port="1"/>
		<edge from-layer="179" from-port="3" to-layer="180" to-port="1"/>
		<edge from-layer="180" from-port="2" to-layer="184" to-port="3"/>
		<edge from-layer="181" from-port="0" to-layer="184" to-port="4"/>
		<edge from-layer="182" from-port="0" to-layer="184" to-port="5"/>
		<edge from-layer="183" from-port="0" to-layer="184" to-port="6"/>
		<edge from-layer="184" from-port="7" to-layer="201" to-port="0"/>
		<edge from-layer="184" from-port="9" to-layer="222" to-port="0"/>
		<edge from-layer="184" from-port="8" to-layer="186" to-port="0"/>
		<edge from-layer="185" from-port="0" to-layer="186" to-port="1"/>
		<edge from-layer="186" from-port="2" to-layer="193" to-port="0"/>
		<edge from-layer="187" from-port="0" to-layer="192" to-port="0"/>
		<edge from-layer="188" from-port="0" to-layer="190" to-port="1"/>
		<edge from-layer="189" from-port="0" to-layer="190" to-port="2"/>
		<edge from-layer="190" from-port="3" to-layer="192" to-port="1"/>
		<edge from-layer="191" from-port="0" to-layer="192" to-port="2"/>
		<edge from-layer="192" from-port="3" to-layer="193" to-port="1"/>
		<edge from-layer="193" from-port="2" to-layer="195" to-port="0"/>
		<edge from-layer="194" from-port="0" to-layer="195" to-port="1"/>
		<edge from-layer="195" from-port="2" to-layer="197" to-port="0"/>
		<edge from-layer="196" from-port="0" to-layer="197" to-port="1"/>
		<edge from-layer="197" from-port="2" to-layer="199" to-port="0"/>
		<edge from-layer="198" from-port="0" to-layer="199" to-port="1"/>
		<edge from-layer="199" from-port="2" to-layer="237" to-port="0"/>
		<edge from-layer="199" from-port="2" to-layer="214" to-port="0"/>
		<edge from-layer="200" from-port="0" to-layer="201" to-port="1"/>
		<edge from-layer="201" from-port="2" to-layer="203" to-port="0"/>
		<edge from-layer="202" from-port="0" to-layer="203" to-port="1"/>
		<edge from-layer="203" from-port="2" to-layer="205" to-port="0"/>
		<edge from-layer="204" from-port="0" to-layer="205" to-port="1"/>
		<edge from-layer="205" from-port="2" to-layer="211" to-port="0"/>
		<edge from-layer="206" from-port="0" to-layer="208" to-port="1"/>
		<edge from-layer="207" from-port="0" to-layer="208" to-port="2"/>
		<edge from-layer="208" from-port="3" to-layer="210" to-port="0"/>
		<edge from-layer="209" from-port="0" to-layer="210" to-port="1"/>
		<edge from-layer="210" from-port="2" to-layer="211" to-port="1"/>
		<edge from-layer="211" from-port="2" to-layer="238" to-port="0"/>
		<edge from-layer="211" from-port="2" to-layer="213" to-port="0"/>
		<edge from-layer="212" from-port="0" to-layer="213" to-port="1"/>
		<edge from-layer="213" from-port="2" to-layer="214" to-port="1"/>
		<edge from-layer="214" from-port="2" to-layer="216" to-port="0"/>
		<edge from-layer="215" from-port="0" to-layer="216" to-port="1"/>
		<edge from-layer="216" from-port="2" to-layer="218" to-port="0"/>
		<edge from-layer="217" from-port="0" to-layer="218" to-port="1"/>
		<edge from-layer="218" from-port="2" to-layer="219" to-port="0"/>
		<edge from-layer="219" from-port="1" to-layer="220" to-port="0"/>
		<edge from-layer="221" from-port="0" to-layer="222" to-port="1"/>
		<edge from-layer="222" from-port="2" to-layer="229" to-port="0"/>
		<edge from-layer="223" from-port="0" to-layer="228" to-port="0"/>
		<edge from-layer="224" from-port="0" to-layer="226" to-port="1"/>
		<edge from-layer="225" from-port="0" to-layer="226" to-port="2"/>
		<edge from-layer="226" from-port="3" to-layer="228" to-port="1"/>
		<edge from-layer="227" from-port="0" to-layer="228" to-port="2"/>
		<edge from-layer="228" from-port="3" to-layer="229" to-port="1"/>
		<edge from-layer="229" from-port="2" to-layer="231" to-port="0"/>
		<edge from-layer="230" from-port="0" to-layer="231" to-port="1"/>
		<edge from-layer="231" from-port="2" to-layer="233" to-port="0"/>
		<edge from-layer="232" from-port="0" to-layer="233" to-port="1"/>
		<edge from-layer="233" from-port="2" to-layer="235" to-port="0"/>
		<edge from-layer="234" from-port="0" to-layer="235" to-port="1"/>
		<edge from-layer="235" from-port="2" to-layer="236" to-port="0"/>
	</edges>
	<meta_data>
		<MO_version value="2022.1.0-6910-173f328c53d"/>
		<Runtime_version value="2022.1.0-6910-173f328c53d"/>
		<legacy_path value="False"/>
		<cli_parameters>
			<caffe_parser_path value="DIR"/>
			<compress_fp16 value="False"/>
			<data_type value="FP32"/>
			<disable_nhwc_to_nchw value="False"/>
			<disable_omitting_optional value="False"/>
			<disable_resnet_optimization value="False"/>
			<disable_weights_compression value="False"/>
			<enable_concat_optimization value="False"/>
			<enable_flattening_nested_params value="False"/>
			<enable_ssd_gluoncv value="False"/>
			<extensions value="DIR"/>
			<framework value="onnx"/>
			<freeze_placeholder_with_value value="{}"/>
			<generate_deprecated_IR_V7 value="False"/>
			<input value="imgs"/>
			<input_model value="DIR/encoder.onnx"/>
			<input_model_is_text value="False"/>
			<input_shape value="[1,3,160,1400]"/>
			<k value="DIR/CustomLayersMapping.xml"/>
			<keep_shape_ops value="True"/>
			<layout value="imgs(nchw)"/>
			<layout_values value="{'imgs': {'source_layout': 'nchw', 'target_layout': None, 'is_input': True}}"/>
			<legacy_ir_generation value="False"/>
			<legacy_mxnet_model value="False"/>
			<log_level value="ERROR"/>
			<mean_scale_values value="{'imgs': {'mean': None, 'scale': array([255., 255., 255.])}}"/>
			<mean_values value="()"/>
			<model_name value="formula-recognition-medium-scan-0001-im2latex-encoder"/>
			<output value="['row_enc_out', 'hidden', 'context', 'init_0']"/>
			<output_dir value="DIR"/>
			<placeholder_data_types value="{}"/>
			<placeholder_shapes value="{'imgs': (1, 3, 160, 1400)}"/>
			<progress value="False"/>
			<remove_memory value="False"/>
			<remove_output_softmax value="False"/>
			<reverse_input_channels value="False"/>
			<save_params_from_nd value="False"/>
			<scale_values value="imgs[255,255,255]"/>
			<silent value="False"/>
			<source_layout value="()"/>
			<static_shape value="False"/>
			<stream_output value="False"/>
			<target_layout value="()"/>
			<transform value=""/>
			<use_legacy_frontend value="False"/>
			<use_new_frontend value="False"/>
			<unset unset_cli_parameters="batch, counts, disable_fusing, disable_gfusing, finegrain_fusing, input_checkpoint, input_meta_graph, input_proto, input_symbol, mean_file, mean_file_offsets, move_to_preprocess, nd_prefix_name, pretrained_model_name, saved_model_dir, saved_model_tags, scale, tensorboard_logdir, tensorflow_custom_layer_libraries, tensorflow_custom_operations_config_update, tensorflow_object_detection_api_pipeline_config, tensorflow_use_custom_operations_config, transformations_config"/>
		</cli_parameters>
	</meta_data>
</net>
